lessons/lesson-7/conv-ae-weights.pt (torch_old, 24791 bytes, 9 tensors)

encoder.0.weight f4 [16, 1, 3, 3]
000000 d7 da 00 be 31 86 40 bf 15 e8 1f 3f 76 2d 72 be
       -0.12583481 -0.7520476 0.62463504 -0.23650154
000010 a1 25 fa be d0 06 0f 3f e8 3b 9c bd 42 33 35 be
       -0.48856834 0.5586977 -0.07628614 -0.17695335
000020 02 29 2d 3e 9a 26 6e 3e ec 7a cc be 9b 80 36 be
       0.16910174 0.23256913 -0.39937532 -0.17822497
000030 20 3e 1d 3e 46 80 72 be 34 b5 bb be 18 2c 42 3f
       0.1535573 -0.23681745 -0.36661685 0.7584853
000040 37 c6 a3 be 83 cb b6 bc 07 cf 09 3f b4 1b 46 3e
       -0.31987163 -0.022313839 0.53831524 0.19346505
000050 6c ab 33 3e bd 14 dd 3b f8 e8 8d bd d7 9b 97 bd
       0.17545861 0.006746857 -0.06929201 -0.07402771
000060 2f 32 b7 3e 1b e1 d7 3e be 14 af 3e 7c e0 ad 3e
       0.35780475 0.4216393 0.34195513 0.3396033
000070 db 16 23 3e 6f 50 54 3f 33 5b 46 bf 36 2c 04 be
       0.15926687 0.8293523 -0.7748291 -0.1290749
000080 aa de ce be b7 52 3e bf c6 1f 73 be c9 80 79 be
       -0.40404254 -0.7434496 -0.2374259 -0.24365534
000090 e5 43 7e bc cb 35 94 bc 66 f9 b2 bb 9c 4d 19 bd
       -0.015519117 -0.018092057 -0.0054618595 -0.03742753
0000a0 35 92 cc bc 22 35 3e bd fb 05 88 3c bd bd 07 bd
       -0.02497206 -0.04643739 0.016604414 -0.033139933
0000b0 69 47 f7 3c ba fe ee be c5 14 b7 3b cc 44 4b 3f
       0.030185418 -0.46678716 0.0055871927 0.7940185
0000c0 40 ba 7b be 9c 94 53 3e 34 9f 18 bc 94 d3 16 3f
       -0.24582767 0.20662159 -0.009315301 0.5891659
0000d0 4a ef 81 3e 94 0b 8f bd c0 bd 0a bf 88 4e a9 be
       0.25377876 -0.0698463 -0.54195786 -0.33067727
0000e0 fc c6 71 be d2 50 29 bf 95 d2 9b be 06 b2 f1 bd
       -0.23611063 -0.66138947 -0.304341 -0.118015334
0000f0 13 27 ab 3e 19 38 44 3f 58 20 38 3e 5f a2 6a 3f
       0.3342825 0.766481 0.17981088 0.9165401
000100 4a 50 96 be 69 c7 c0 be 21 42 bf bd e7 7e 42 bd
       -0.2935813 -0.37652138 -0.09338785 -0.047484305
000110 7f 5f 9c be af 63 d8 be ca d0 23 bf a0 0b 95 be
       -0.30541608 -0.42263553 -0.6399046 -0.29110432
000120 40 6e ea be 76 17 bf 3b dd a7 c1 be e8 02 91 be
       -0.4578724 0.005831654 -0.37823382 -0.2832253
000130 33 ab 05 3e 4b e4 28 be c0 4a 82 bf 3a 10 5e be
       0.13053589 -0.16493337 -1.0179062 -0.21685877
000140 69 b1 97 bf 7c 3d c0 3e a7 e6 c7 3e 51 3c 90 3e
       -1.1851016 0.3754691 0.3904316 0.28171018
000150 d3 69 77 3e ec 9b 63 3d e2 a3 e4 bd a8 a7 d3 3d
       0.24161462 0.05556862 -0.11164071 0.10334712
000160 63 fe 52 be cd be 1e be 27 6b d2 bf 0e 32 16 be
       -0.20604853 -0.15502472 -1.643895 -0.14667532
000170 e6 f8 5e be ab 20 e5 be 0a d2 2f 3d 1c 3f 51 be
       -0.21774635 -0.44751486 0.04292492 -0.2043423
000180 1e 1c a2 3e 1c ef 84 bd 59 49 ac be a3 f8 86 3e
       0.31662077 -0.06490919 -0.3364971 0.2636157
000190 a7 df 84 be a0 6c 28 be fc 32 08 3f f2 e0 b1 3e
       -0.25951883 -0.16447687 0.53202796 0.34741932
0001a0 d9 bc 5c 3f 33 4f cd be 4d 65 11 bf 38 db 57 3d
       0.8622566 -0.40099487 -0.567952 0.052699298
0001b0 5f f1 97 bd 65 13 74 be 1d 41 80 3e f9 c6 79 3e
       -0.07419085 -0.23835523 0.25049677 0.24392308
0001c0 17 dc fd bc ad 1f 14 3f 90 64 32 be ff ff c9 bd
       -0.030988736 0.57860833 -0.17421174 -0.098632805
0001d0 c9 3d bc 3e c3 45 80 be ca 03 37 3f 07 0a 4d be
       0.36765888 -0.25053224 0.71490157 -0.20023356
0001e0 74 19 1c bf c2 0c 03 3f 41 c5 14 be 58 91 4c be
       -0.6097634 0.5119134 -0.14528371 -0.19977319
0001f0 9a 71 1a 3f 10 7c 0d be 6c 41 b4 bd f7 47 a2 be
       0.6032959 -0.13816857 -0.08801541 -0.3169553
000200 19 c2 36 be 42 6e fa 3e 4d 12 ad 3e 50 9c 96 3d
       -0.1784748 0.48912245 0.33803025 0.07354033
000210 14 54 c9 3e 0b 43 48 3d c0 54 e1 3d c8 99 5b bd
       0.3932196 0.048892062 0.11002493 -0.053613454
000220 0e 11 4f be 96 7b ee be b1 58 07 3d 62 e1 8b be
       -0.2022135 -0.46578664 0.033043567 -0.2732039
000230 7f b5 0a bf 00 e4 3e bf 8d a9 17 bf b7 c2 a6 3f
       -0.5418319 -0.7456665 -0.5924309 1.3028172

encoder.0.bias f4 [16]
000000 e8 a4 04 bf fa 9f f1 be 69 9d 47 3d dd ca 93 bf
       -0.51814127 -0.47192365 0.048734102 -1.1546284
000010 d4 2b 43 40 29 2d 0b bf da 28 73 bf 9b e6 bf bf
       3.04955 -0.54365784 -0.9498421 -1.499225
000020 2a c1 09 c0 b7 ed 85 3f 6c 99 ea bf 42 2a 44 be
       -2.1524148 1.046317 -1.8328071 -0.19156745
000030 ba 63 4d 3f 59 f4 59 3e 7e 01 53 3f 2b 3a bf bf
       0.80230296 0.21284617 0.8242415 -1.4939626

encoder.3.weight f4 [8, 16, 3, 3]
000000 28 de 7b be c0 5c 83 be c1 ed 1d bd 7e 8f 77 be
       -0.24596465 -0.256567 -0.038556818 -0.24175832
000010 db d2 46 be be bc bb bd 9a f7 65 be aa 22 2f be
       -0.19416372 -0.09166859 -0.22457734 -0.17103067
000020 45 e3 33 bd 02 08 62 be 29 ff 35 be 8f 45 3d be
       -0.043917913 -0.22073367 -0.17773117 -0.18483566
000030 27 0e 5a be 68 ce 8c be cc 7c 28 be d7 25 8b bd
       -0.21294461 -0.27501225 -0.16453856 -0.06794327
000040 0e e0 f2 bd 30 93 e6 bc d1 68 93 be a5 43 9d be
       -0.11859141 -0.028146356 -0.28790906 -0.3071567
000050 65 67 82 be 20 a3 31 be bb a6 8c be 50 c2 45 be
       -0.2546951 -0.17347383 -0.27470955 -0.19312406
000060 6b f0 a4 be 98 0f 95 be 8d a9 83 be ce 90 49 be
       -0.32214674 -0.2911346 -0.25715294 -0.19684145
000070 06 b7 18 be e0 19 47 bc 94 92 da bd 0c da 9a bd
       -0.14913568 -0.012152165 -0.10672489 -0.075611204
000080 24 03 f4 bd 88 dd 7d be ae 00 d3 bd 46 3d d6 bc
       -0.119146615 -0.24791539 -0.10302864 -0.026152264
000090 68 5b 9f be 1c 10 9b be f7 6e aa be 71 8a 91 be
       -0.31124425 -0.30285728 -0.33287784 -0.28425935
0000a0 f5 5f 8d be 3f ff af be 3f cc 88 be 42 7f 85 be
       -0.27612272 -0.34374425 -0.26718327 -0.26073653
0000b0 4b 80 ac be 36 aa 1e be cb bc 81 be d1 7d d7 bc
       -0.3369163 -0.15494618 -0.2533935 -0.026305111
0000c0 76 fc 8a be 0f 35 f7 bd 37 63 04 be d2 f4 a4 be
       -0.27145737 -0.12070667 -0.12928472 -0.32218033
0000d0 f0 d0 4d be 76 97 84 bd a7 13 27 be 4a 43 85 be
       -0.20099235 -0.064742014 -0.1631609 -0.260279
0000e0 31 79 fa bd 6c 5a 6d be e2 81 4f be 52 d7 15 be
       -0.12230147 -0.23179024 -0.2026439 -0.1463292
0000f0 6d 7e 48 be fd c9 4f be 85 8a 48 bd 75 3e 11 be
       -0.19579478 -0.20291896 -0.048960228 -0.14183982
000100 d5 f5 4f be a3 d0 fd bd a9 b7 4e be f2 60 58 be
       -0.20308621 -0.1239331 -0.20187248 -0.21130732
000110 b8 04 17 be b2 c7 72 be 7a 03 2b be 7c 36 2e be
       -0.14747894 -0.2370899 -0.16700545 -0.17012972
000120 4a 58 78 be be fd 76 be 1f 6d 80 be d0 cd 8c be
       -0.2425243 -0.24120232 -0.25083253 -0.27500772
000130 99 77 66 be 65 a5 6c be 22 ae 3f be da be 58 be
       -0.2250656 -0.23109968 -0.1871877 -0.21166554
000140 78 0a 90 be 5b 01 94 be ca 01 a6 be 20 f3 93 be
       -0.28132987 -0.28907284 -0.3242324 -0.28896427
000150 d3 34 45 be 3b c9 8e be 51 c1 86 be f6 38 94 be
       -0.19258432 -0.27887902 -0.26319364 -0.28949708
000160 11 bc 85 be d9 f9 85 be 03 d2 78 be d5 7a 6b be
       -0.26120046 -0.2616718 -0.24298863 -0.22996075
000170 3a bd 7f be 8d e8 6a be fd 29 4b be 16 0c 41 be
       -0.24974528 -0.22940274 -0.19840236 -0.18852267
000180 93 cd 2d be 00 c2 54 be f9 27 57 be 2f cc 8b be
       -0.16972952 -0.2077713 -0.21011342 -0.27304217
000190 3a 20 7e be 1c 9d eb bd 6b ae 4d be e5 48 20 be
       -0.24816981 -0.115045756 -0.20086066 -0.15652807
0001a0 29 01 3d bd 83 9e 88 bd c7 cf 69 bd c1 f4 42 bc
       -0.046143685 -0.06670859 -0.057082918 -0.011899174
0001b0 5e bb 9f be 5a 96 98 be be 68 66 be 94 fd 97 be
       -0.31197637 -0.2980221 -0.22500893 -0.29685652
0001c0 61 0b 7f be 73 9f 67 be 98 b4 ae be 61 2b 81 be
       -0.24906684 -0.22619419 -0.34122157 -0.25228408
0001d0 7a 5f 7f be 9f 66 66 be eb fa 6f be 3d b2 0d be
       -0.24938765 -0.22500084 -0.23435561 -0.13837524
0001e0 3a 71 43 be 9a ae 5e be c5 a4 1e be fe 78 8f be
       -0.19086161 -0.21746293 -0.15492542 -0.28021997
0001f0 14 a0 5e be 95 c1 f3 bd 0c d9 9d be 51 88 a6 be
       -0.21740752 -0.11902157 -0.30829656 -0.32525876
000200 3b c1 9c be 5b 4c 7d be 68 c9 ae be e0 aa 76 be
       -0.30616173 -0.24736159 -0.34138036 -0.24088621
000210 34 6f 94 be 21 8b 87 be 47 26 8e be 72 ae 24 be
       -0.2899109 -0.26473334 -0.27763578 -0.1608217
000220 d0 10 07 be 13 0f 9b bc 26 aa 6b be c7 e4 2b be
       -0.13190007 -0.018928086 -0.23014125 -0.1678649
000230 94 65 39 bc 9b 0b 48 be a9 b9 68 be e4 d0 46 bd
       -0.011315722 -0.19535677 -0.22727074 -0.048539057
000240 6f ff 2a be 19 04 da 3d c8 2b 42 bf a5 d9 cc bd
       -0.16699003 0.10645313 -0.75848055 -0.1000245
000250 dc 5a 5e 3f 63 e6 6c be 90 74 27 bf cf 6b b9 be
       0.8685739 -0.2313476 -0.65412235 -0.36215064
000260 ee 24 55 bf a0 75 e3 3e 0c aa 4c bc 74 3f 28 3f
       -0.83259475 0.44425678 -0.012491714 0.6572182
000270 ff 18 97 be a8 da 88 3e 08 33 e7 be c2 cd 7a 3e
       -0.29511258 0.2672932 -0.4515612 0.24492553
000280 39 b1 e7 bd 88 73 0c 3f 37 ec 54 bf a1 6e e2 bd
       -0.113130994 0.54863787 -0.83172935 -0.11056257
000290 9b ad 9a be 6c 93 4b be 0b 1c 6b 3d c7 93 6d be
       -0.30210575 -0.19880456 0.05739979 -0.23200904
0002a0 d1 57 9b 3e f5 a9 a2 3d d5 26 fa bd d1 fb b2 bf
       0.30340436 0.07942573 -0.12214438 -1.3983098
0002b0 bc a2 82 be 4a 3a 4f bf cb 4f 1e 3f 42 6d 91 3e
       -0.2551478 -0.8094832 0.61840504 0.2840367
0002c0 94 06 ba 3e 74 75 3e bf 1e 9a d8 bd 49 04 9f bf
       0.36333144 -0.7439797 -0.105762705 -1.2423183
0002d0 0f f2 50 bf 6d e3 69 be e9 49 6f bf e8 66 93 bf
       -0.8161935 -0.22840662 -0.9347215 -1.151578
0002e0 c0 76 20 40 34 2e 1d bd 51 b7 91 bf c2 45 47 bf
       2.507248 -0.03837414 -1.1384069 -0.77840817
0002f0 37 67 bd bf b7 98 86 3c a2 f8 13 bf b2 eb fd be
       -1.4797124 0.016430242 -0.5780126 -0.49593884
000300 fb 7b 0b bf 80 a5 14 3e a6 9d f2 3d 1b b8 17 3e
       -0.54486054 0.14516258 0.11846475 0.14816324
000310 dd c4 a1 bd 17 36 89 be 74 83 b8 3f 84 f7 d6 3e
       -0.07898877 -0.2679908 1.4415116 0.41985714
000320 85 28 87 3f 1b f7 ba be c0 dc cc be 80 c9 58 bf
       1.055924 -0.36516652 -0.4001217 -0.84682465
000330 86 2f 7d 3f 07 d4 49 3f c9 66 86 3f 89 09 09 bf
       0.9890064 0.78839153 1.0500118 -0.53530174
000340 c7 1f b4 3d 41 7e 54 3e f8 d3 03 3e 37 a3 7e 3e
       0.087951235 0.20751287 0.12873828 0.24866949
000350 2b 11 17 3e 24 68 08 bf 96 1e dd bd fd 6c f1 be
       0.14752643 -0.53283906 -0.107968494 -0.47153464
000360 79 a0 00 be 23 12 c3 be 7b ad 46 bf 51 12 69 3e
       -0.12561215 -0.38099775 -0.7760846 0.22760893
000370 0f e1 b7 3f 4f 71 99 bf 7b 5f 28 3c 57 9e 9a bd
       1.4365557 -1.1987704 0.010276671 -0.07549732
000380 53 26 04 bf af 4f 73 bf ce 6e 22 be 85 19 6a bf
       -0.5162098 -0.9504346 -0.15862581 -0.9144519
000390 5f 07 a3 bd 9c 08 32 3e 8b e3 87 3e 67 3d 16 bf
       -0.0796039 0.17386097 0.2654079 -0.5868744
0003a0 45 fb 30 3e 75 21 14 bf 77 95 b8 3f df 94 09 be
       0.17283352 -0.5786355 1.4420613 -0.13435696
0003b0 dc 75 65 3f 5e f3 9c be c9 1c bd be a8 48 95 be
       0.89632964 -0.30654424 -0.36936024 -0.29156995
0003c0 86 6f 90 3f d3 b1 c2 3e 09 f3 4d 3f 70 40 05 bf
       1.1284034 0.38026294 0.8044897 -0.5205145
0003d0 47 91 e7 be c8 43 17 3f b4 eb d3 bd 6b 6b 2f be
       -0.45228025 0.590878 -0.10347691 -0.1713082
0003e0 d2 00 f3 3e 82 af fa be 66 65 bb 3e 5b 4e 6e 3e
       0.47461563 -0.48962027 0.36600798 0.23272078
0003f0 15 28 71 3d d0 69 bc 3e ab f3 97 be 05 2a 50 bf
       0.058876116 0.3679948 -0.2967809 -0.81314117

encoder.3.bias f4 [8]
000000 27 fd 7c be e7 e3 59 3f a4 9d 62 3f 62 94 a2 3e
       -0.24705945 0.85113376 0.8852179 0.31753832
000010 42 86 d9 9e ad d9 13 3f 59 56 80 3f a4 94 8a 3f
       -2.3031296e-20 0.5775402 1.0026351 1.0826612

decoder.0.weight f4 [8, 16, 3, 3]
000000 d5 e7 f9 bc ae 31 70 be 1b 76 b8 3c a9 bb 30 00
       -0.030506054 -0.23456451 0.022517255 4.475424e-39
000010 46 51 0c 3e 07 d1 13 80 d5 1f f1 3d 13 58 6d be
       0.13702878 -1.81986e-39 0.117736496 -0.23178129
000020 f9 18 b0 3d 22 e0 5c 38 b3 08 b4 b7 47 83 0f 80
       0.08598513 5.2660827e-05 -2.1461723e-05 -1.424626e-39
000030 a5 ff 0c 3d 09 f9 12 be f6 9a bd 3d 78 78 03 3e
       0.03442349 -0.14352812 0.09258072 0.12838924
000040 8a 54 dd bb e9 62 3a 3b cd 29 60 3d 87 ad 40 be
       -0.0067544626 0.0028440303 0.054727364 -0.18816195
000050 c9 df 08 be 1d 73 64 a7 70 21 7f 01 de 0c fa 3d
       -0.13366617 -3.170376e-15 4.6860093e-38 0.122094855
000060 23 3c 8c bd 8c 35 8c b0 a6 85 1b be f4 a8 a3 3d
       -0.06847408 -1.020156e-09 -0.15187702 0.079912096
000070 c4 20 41 3e 7e 2a 8e 01 ff bb db 3c ec 96 43 01
       0.18860155 5.2223535e-38 0.026823042 3.5924125e-38
000080 8e 48 27 80 82 85 c1 3c 77 59 60 3e a5 a9 27 80
       -3.607612e-39 0.023623232 0.21909128 -3.642441e-39
000090 f1 37 8e 3a 79 dd 40 be fe af e8 bd 7e 4e 8b 01
       0.0010850412 -0.18834485 -0.11361693 5.1173167e-38
0000a0 b7 2c 14 02 9c 9b 46 3e 59 64 91 be b0 17 66 82
       1.0886155e-37 0.19395298 -0.28396872 -1.6904529e-37
0000b0 92 bd 77 be 95 ff 55 3c 5c ed 94 3e 00 08 31 bd
       -0.24193409 0.013061424 0.2908734 -0.04322052
0000c0 85 12 ad 3c fc 17 eb bd 00 94 7b 81 02 59 27 be
       0.021126995 -0.11479184 -4.6207604e-38 -0.16342548
0000d0 14 b2 80 3e 76 70 0e be a7 11 49 bc e5 c3 3d be
       0.25135863 -0.13910088 -0.012272275 -0.18531759
0000e0 12 4b d0 3d ad e0 87 3e 30 37 43 80 9b 3c cf 3e
       0.101705685 0.26538602 -6.172776e-39 0.40475926
0000f0 2f 07 cf bd c8 aa 23 be 62 72 cb 3d 84 e5 84 3e
       -0.10108792 -0.15983117 0.09933926 0.25956357
000100 34 08 19 00 0e 3d 87 bb ab 5a 28 3e 39 47 00 3e
       2.29883e-39 -0.0041271513 0.16440837 0.1252717
000110 38 a4 b8 3d b3 06 f0 bd a1 18 17 00 1e 9b 3c be
       0.09015697 -0.11720028 2.121052e-39 -0.18418548
000120 40 12 98 be b6 54 2d 00 d9 d2 c1 bd 6d 97 92 b7
       -0.29701424 4.162986e-39 -0.09464044 -1.747507e-05
000130 6f 96 87 bd ea 7a ad 02 dd ae 32 80 d8 f3 d6 3c
       -0.0662049 2.5490615e-37 -4.654504e-39 0.02623932
000140 8b 83 7e 02 36 c2 7e be 80 05 69 01 ca e5 df bd
       1.8698724e-37 -0.24878773 4.2799287e-38 -0.10932501
000150 18 3b 06 00 c4 52 3d 01 f0 a2 4d 80 a8 cc 01 b9
       5.72212e-40 3.47732e-38 -7.129784e-39 -0.00012378639
000160 8d ab 2c bc dd 05 2f 80 4b a5 4a b8 60 c8 19 80
       -0.010538948 -4.318372e-39 -4.8314494e-05 -2.367768e-39
000170 69 7c 45 be 30 fa 39 00 21 49 f0 3e be bc 08 00
       -0.1928574 5.324374e-39 0.46930793 8.02392e-40
000180 2a 37 34 00 88 d2 33 00 15 42 62 be 53 ec 7e 3a
       4.795235e-39 4.759135e-39 -0.22095521 0.0009724546
000190 f2 5e e2 bd cd a9 1a 00 ff eb 2c 80 a6 44 11 80
       -0.11053266 2.448636e-39 -4.125421e-39 -1.58583e-39
0001a0 aa 6b 0f 00 0a 93 84 3b 88 49 c8 bd 84 4b 7f 02
       1.416155e-39 0.0040458487 -0.0977965 1.8756113e-37
0001b0 a1 1c d8 01 68 3f c7 80 c6 30 11 80 49 b6 00 00
       7.938695e-38 -1.829801e-38 -1.5787e-39 6.5392e-41
0001c0 62 14 cb 81 28 2f 64 01 50 d4 5c 82 10 75 43 81
       -7.459967e-38 4.191082e-38 -1.6223978e-37 -3.5899832e-38
0001d0 0a 51 fe 01 7e 77 10 3d f8 61 de bd bb df 79 3c
       9.342115e-38 0.035270207 -0.1085853 0.015251095
0001e0 39 ee 04 3e f7 a9 10 00 da 7f 62 be 45 9d 19 80
       0.129815 1.53034e-39 -0.22119084 -2.352305e-39
0001f0 6d 12 01 be 36 0d 20 3d 6e 44 72 3e 02 da 77 3d
       -0.12604685 0.0390751 0.23658916 0.060510643
000200 63 fc 65 3e ab 0f 2d bc e9 7f 7f 3e 5e 3d a1 3e
       0.22459559 -0.010562818 0.24951138 0.31492132
000210 80 aa 12 82 bb 0e a8 3d 64 7a 11 01 2f 00 b5 bd
       -1.0775317e-37 0.082059346 2.6720105e-38 -0.08837926
000220 ec dd 7d 3e ba b3 67 bc 63 dc ee 3d 00 91 40 01
       0.24791688 -0.014141971 0.11663129 3.5368863e-38
000230 54 ed 10 3e fc 4a e1 01 69 3c 3a 3e 5e bd 8a 01
       0.14153033 8.2759544e-38 0.18187107 5.096492e-38
000240 26 4f 36 be 48 27 04 3f 8c b7 60 3d fc 6a 0d 80
       -0.1780363 0.5162244 0.054862544 -1.23224e-39
000250 b1 a1 b6 be f8 d1 07 80 74 23 e8 bd 65 cc bf bd
       -0.35670236 -7.18171e-40 -0.11334887 -0.09365157
000260 81 dd fc bd 15 27 1a be 21 aa 56 3e 78 b3 db 3b
       -0.12346936 -0.15053971 0.20963337 0.006704744
000270 dd db 49 be f7 66 61 3f 08 da 04 bd 74 01 0a 3c
       -0.19712777 0.88047737 -0.032434493 0.008423198
000280 02 fb 75 3f 99 dc 4f be 1d 9c 36 3e f2 35 81 be
       0.9608613 -0.20298995 0.1783299 -0.2523647
000290 90 9d 17 bd fc f6 53 bc db 83 bf bd d5 82 01 3f
       -0.037015498 -0.012937304 -0.09351321 0.5059026
0002a0 56 51 fa 3c d1 84 08 bf 6f b2 8c be a8 e9 b1 be
       0.030556362 -0.5332766 -0.27479884 -0.34748578
0002b0 99 76 40 be f8 97 8e 9b 48 46 15 bf d8 f0 3e 00
       -0.18795241 -2.3590137e-22 -0.58310366 5.780199e-39
0002c0 ab 07 e6 bc 95 0b 3e bf 03 0e 9c 3e 1c a3 68 be
       -0.028079828 -0.7423642 0.3047944 -0.22718471
0002d0 eb 4a 16 3f 1d f0 02 40 58 c8 25 3e b8 23 a3 be
       0.58708066 2.0459054 0.16189706 -0.3186319
0002e0 7c d0 25 bd 1e e6 e6 bd 44 72 41 3f d9 64 20 bf
       -0.04048203 -0.1127436 0.7556498 -0.6265388
0002f0 36 c2 e1 3b be ac 72 3e 46 14 d3 3e fb 72 ac bd
       0.006889607 0.23698708 0.41226405 -0.08420368
000300 58 90 c9 3e 3f 68 a7 3e 88 a7 47 be 8e f5 9a be
       0.39367938 0.3269672 -0.19497502 -0.30265468
000310 b9 29 9c 3d e9 f1 25 be 42 1b 04 be 5e 10 df 3e
       0.076251455 -0.16205563 -0.12901023 0.43567175
000320 eb 37 25 3f a0 51 ef be c9 79 62 bd 69 05 c6 be
       0.6453845 -0.46741962 -0.055291925 -0.38676003
000330 b6 cc 9e be 6d 8e 4a be ca 9e ae bd 93 2a 40 3e
       -0.31015557 -0.19780894 -0.0852638 0.18766241
000340 fd 5e 19 80 2d 61 a0 3e 8a 0a 84 3f 00 ed a9 3f
       -2.329963e-39 0.3132414 1.0315716 1.3275452
000350 cc 7a 81 3f a9 da 3d bf d8 5f 14 00 82 fd 53 bf
       1.01156 -0.74161774 1.871092e-39 -0.828087
000360 5c 80 df bd f9 d3 b7 bd 84 97 87 3f de 75 e2 bd
       -0.109131545 -0.089759775 1.0593114 -0.11057638
000370 0a ae 37 be e5 71 40 bd 2c 8b 73 be a7 11 00 bd
       -0.17937484 -0.04698362 -0.23783559 -0.031266835
000380 7c ce 29 bf e7 19 07 40 b6 ad db bd 6e 99 7e be
       -0.66330695 2.110956 -0.10726492 -0.24863216
000390 90 24 7b bc bb 51 1f be c2 b7 44 bb 92 01 0e bf
       -0.015328541 -0.15558521 -0.0030016755 -0.55471146
0003a0 50 28 91 bf ee 1a 30 be 58 fa f1 bc 0e ce 1a 80
       -1.1340427 -0.17197773 -0.029538319 -2.461641e-39
0003b0 f1 d0 91 3e 27 6f 0f 80 99 0d 5f bf 70 74 10 80
       0.28479722 -1.417406e-39 -0.87130123 -1.511138e-39
0003c0 81 65 84 bd 2f ba 1a 00 07 64 31 3e 6b a1 bb 3d
       -0.06464673 2.454513e-39 0.17323314 0.091616474
0003d0 99 ca d0 3f e3 b4 a9 bd a4 25 08 00 fc 3b 0f 80
       1.6311828 -0.082864545 7.48187e-40 -1.399051e-39
0003e0 1f a7 0a 80 3c 80 aa 3e a2 a4 b1 bd ec 50 66 be
       -9.78307e-40 0.3330096 -0.08673979 -0.22491807
0003f0 42 70 d6 bb 75 e1 9f ba 88 57 f7 b9 cc 3e f0 a6
       -0.006544144 -0.0012197929 -0.00047176727 -1.6670366e-15

decoder.0.bias f4 [16]
000000 6c a9 bc be f4 2c bd 3e e1 02 f8 3f 2e 29 16 c0
       -0.3684801 0.3694836 1.9375879 -2.3462634
000010 df 8f b6 3f 6e 0c 21 bd d5 8f a5 3d 7a 69 8d c0
       1.4262656 -0.039318494 0.080840744 -4.4191256
000020 4f e8 8f bf 91 40 39 3c 20 f0 29 bf 27 b3 dc be
       -1.124277 0.011306898 -0.66382027 -0.43105432
000030 a2 48 0e b4 b7 18 ff bd 8e b3 db bf 27 9b af 3e
       -1.3251204e-07 -0.12455886 -1.7164171 0.3429806

decoder.2.weight f4 [16, 8, 5, 5]
000000 7f 96 05 bf 68 0b 1a bf a5 4e 15 80 d5 5c 7e 3d
       -0.52182764 -0.60173655 -1.956758e-39 0.06210025
000010 9e 27 6d 3e 1a 96 11 00 7f af 16 bf ae d5 ed bd
       0.23159644 1.61505e-39 -0.58861536 -0.11613022
000020 62 21 2a 00 aa c2 0e 3e e7 19 17 80 61 1a 15 3e
       3.869066e-39 0.13941446 -2.121508e-39 0.14560844
000030 26 33 8e bd 95 e2 11 80 3a 03 69 be cd 1e 11 3e
       -0.069433495 -1.642486e-39 -0.22755137 0.14171906
000040 c6 51 1d 3f 9e ae 39 00 7a 29 20 be a3 7b 36 be
       0.614529 5.297264e-39 -0.15640822 -0.17820601
000050 f9 99 10 80 d2 d0 c7 3e 53 53 8e 3e 1b bf 1a 00
       -1.524603e-39 0.39026505 0.27797946 2.456279e-39
000060 48 cb 66 3d 93 d7 91 bd 84 6e 7f 3e a4 2e b4 3d
       0.056346208 -0.07121196 0.24944502 0.087979585
000070 d5 da 33 3e 1e 78 f7 bd ce 79 ad 3d cc f5 a2 3c
       0.17563947 -0.120834574 0.08470498 0.019892596
000080 3c 09 e3 be f0 10 54 be 6e 15 f5 3d 28 5d 57 be
       -0.44342983 -0.20709586 0.11966978 -0.2103163
000090 95 07 b1 be 24 aa 0c bf 8e 90 4e 3e 1f 9d 10 3f
       -0.34576097 -0.54947114 0.2017233 0.5648975
0000a0 3c e1 07 3d c2 e5 35 bf 00 48 6d be d5 33 92 3e
       0.033173785 -0.7105371 -0.23171997 0.2855517
0000b0 19 0b 6a 3e bf 4e 3d 3d 07 89 b9 be 65 0d fb 3d
       0.22855796 0.046217676 -0.36237356 0.12258414
0000c0 ac 1d 99 3c e6 a7 c4 be 0b 6a b3 3e 50 4f b2 3e
       0.018690906 -0.38409346 0.35041842 0.34826136
0000d0 95 df 37 3d cb 38 83 3e a5 6e b6 3e 2c 39 74 3e
       0.04489096 0.25629267 0.3563129 0.23849934
0000e0 eb bf 57 be 77 69 05 bf 50 d8 18 bf e6 ca ba be
       -0.21069305 -0.5211405 -0.59705067 -0.36482924
0000f0 a3 c9 3a be bf 78 4d bf c2 bd 8c be 0a a8 b6 3e
       -0.18240981 -0.8026237 -0.27488524 0.3567508
000100 06 05 72 be fc 58 9c be 9a a1 d5 3e 36 84 45 3f
       -0.23634729 -0.3053664 0.41724855 0.7715486
000110 1c 9d a6 3e 32 1d da be cb d1 ff bb 9a 29 51 3f
       0.3254174 -0.426004 -0.0078069917 0.81704104
000120 9f e9 04 3f 53 80 14 3f 46 dd fe be 11 6a 91 be
       0.5191898 0.5800831 -0.49778193 -0.28401235
000130 c5 fa 84 bd 24 a4 26 be 03 74 8c be 86 56 d0 bd
       -0.06493143 -0.16273552 -0.2743226 -0.10172753
000140 7e 53 49 be c1 76 0c bf 68 92 a4 3e d7 76 b0 bd
       -0.19660756 -0.54868704 0.3214295 -0.08616417
000150 bd 16 9e be 71 31 0a bf 5f a1 de be b8 57 a0 be
       -0.30876723 -0.5398169 -0.4348249 -0.31316924
000160 48 7b 32 3f 87 f4 9b 3d 3d d5 39 3e d2 e5 b5 b8
       0.6971936 0.07614999 0.1814775 -8.67356e-05
000170 70 15 14 bb 70 8b 1b 3a 35 fe 20 bc fa a5 77 38
       -0.0022595786 0.00059335586 -0.009826233 5.9043967e-05
000180 31 ec d9 bd 41 02 28 bd 86 30 c9 37 f2 08 64 bb
       -0.10640753 -0.041017774 2.3983663e-05 -0.003479537
000190 19 0b 1a 3e 14 7d d1 3d c0 f0 76 3c 89 d2 e2 3d
       0.15043296 0.10228935 0.015072048 0.11075313
0001a0 d5 b0 75 bd 85 72 72 bf 5b ed 26 bf 79 aa 52 bd
       -0.059983093 -0.9470599 -0.65205926 -0.051432107
0001b0 e3 f5 da 3e 32 14 10 3e d5 14 08 bf 5d 1a 23 bf
       0.42765722 0.14070204 -0.5315679 -0.637121
0001c0 78 eb 3a 3f 47 6e 65 be 37 c0 c0 3e 39 d4 62 3e
       0.73015547 -0.22405349 0.37646648 0.22151269
0001d0 36 31 f4 3d cc 2f 68 3e 3e b9 62 3e 08 a7 a4 bd
       0.11923449 0.22674483 0.22140977 -0.08039671
0001e0 32 13 86 3e 43 af 98 3d cc 90 0b 3e 1d 95 2d be
       0.2618652 0.074553035 0.13629454 -0.16951413
0001f0 a6 69 88 3d 5b 72 1c bd aa 6a 0f bf fe 09 04 bf
       0.06660776 -0.038194995 -0.5602213 -0.51577747
000200 56 3c af be d6 31 d2 bd 25 7d 7d be 84 27 cf be
       -0.3422572 -0.10263412 -0.2475477 -0.40459836
000210 85 1c 37 bf 85 c5 9e 3d 7e c2 77 3e e2 12 50 3e
       -0.7152789 0.077525176 0.24195287 0.20319703
000220 e0 57 c6 3e 62 ca 5f 3f 47 e7 e3 3e c2 5a 43 bd
       0.38738918 0.87418187 0.44512388 -0.047693975
000230 20 59 85 be a7 f6 98 3e 06 e4 39 3f fe df 6b 3e
       -0.2604456 0.2987568 0.7261356 0.23034665
000240 d2 eb d2 bd 67 8e 89 be 8a 81 07 be 56 58 90 3d
       -0.102988854 -0.26866457 -0.13233009 0.07048099
000250 11 9b 47 be 08 71 76 bd 73 b6 43 3e 08 7c 2c be
       -0.19492747 -0.06016639 0.19112568 -0.16844189
000260 1c de dc bd da 52 ad bd c6 cc 92 3e ef 5c 47 be
       -0.107845515 -0.08463068 0.28671855 -0.19469045
000270 9f 90 01 bf 2d 3c c3 be 6a 76 b8 bd be 0a 94 3e
       -0.506113 -0.38131848 -0.09006961 0.28914446
000280 32 a3 35 3e 8c 87 34 be 6d 27 f9 be 3d 3d 65 be
       0.17738035 -0.17629832 -0.48662892 -0.22386642
000290 9b 1f 87 be 90 2d 47 3e 25 19 d4 be e5 12 98 be
       -0.263913 0.19450974 -0.41425434 -0.29701915
0002a0 8e 84 d9 3e 28 71 c9 3e 75 32 3e be 94 be 8b bd
       0.42483944 0.39344144 -0.18573935 -0.06823459
0002b0 23 a5 99 3e e4 f5 62 3e 7f ee f0 3e aa bf 1e be
       0.30008802 0.22164112 0.47056958 -0.15502802
0002c0 c2 82 73 be 9c d5 b5 3e 48 c3 f8 bd c4 35 88 be
       -0.23780349 0.35514534 -0.12146622 -0.2660352
0002d0 6d ee 44 be 86 a6 09 be 65 8a 0b bf 81 eb 05 3e
       -0.19231577 -0.1344243 -0.5450805 0.13078119
0002e0 56 c7 82 3e e3 98 cc 3c bb 65 43 bf a6 1f 0f 3f
       0.25542706 0.024975246 -0.76327103 0.55907667
0002f0 9e c1 e5 3e 95 84 25 3e 6c c2 c2 3d 42 7e 6e be
       0.4487428 0.16163857 0.09509739 -0.23290351
000300 1e 36 0c be 5b 87 a3 3e 3f 4e c5 bd 67 2f 1f 3e
       -0.13692519 0.31939206 -0.09634065 0.15545426
000310 db c2 75 3e eb 1f 32 3e 1c 83 49 3e 7a 2a 4c 3e
       0.24000113 0.17394988 0.1967892 0.19938079
000320 4b 4d c6 be 02 91 6e bf 4f a9 04 00 48 51 2c bd
       -0.38730845 -0.93190014 4.28078e-40 -0.042069703
000330 8b db 25 bd 13 c1 1a 00 52 11 56 bf a5 1f 48 be
       -0.040492576 2.456985e-39 -0.8362018 -0.19543321
000340 aa dd 13 80 0a a5 b0 bc b7 36 18 80 23 9e 75 bf
       -1.824393e-39 -0.021563072 -2.22368e-39 -0.9594442
000350 92 1c 56 3e 2f f4 21 00 3a 3c 04 be 64 25 81 be
       0.20909336 3.118168e-39 -0.129136 -0.2522384
000360 b7 36 5c be 88 da 19 00 48 17 26 bf 74 15 f8 be
       -0.21505247 2.374282e-39 -0.64879274 -0.48453867
000370 fb a5 0b 00 40 29 02 bf 54 9d ae be bc 06 04 00
       1.069733e-39 -0.5084419 -0.34104407 3.69758e-40
000380 d9 bc 31 be 3b f8 35 3d d9 70 a3 be 0e a4 1c bf
       -0.17357196 0.044426184 -0.31922033 -0.6118783
000390 c4 1e 59 bf 85 d3 a9 be d8 d5 58 3e ef 9b 94 be
       -0.8481257 -0.3316919 0.21175325 -0.29025218
0003a0 09 22 8f be f5 15 3a bf bf 9b bc be 93 ea 59 bf
       -0.27955654 -0.72689754 -0.36837575 -0.85123557
0003b0 90 ec d7 bd b9 1e fc 3b 12 f4 3c be 1e 2a 36 3e
       -0.105431676 0.007694092 -0.1845248 0.17789504
0003c0 15 7e 49 3e 65 68 8f 3d 62 0e a6 3e de 16 a5 3e
       0.19677003 0.070023336 0.32432848 0.3224401
0003d0 62 a7 aa 3e 36 63 a9 bd 22 99 0d bf 00 56 c6 3d
       0.33330828 -0.08270876 -0.5531179 0.09684372
0003e0 48 f1 0d bc 3c 3e 09 3f e6 6e 93 3e cb 1f cc 3e
       -0.008663483 0.5361059 0.28795546 0.39868006
0003f0 e9 5d ee 3d 2c f1 d7 bd 9a 5f 0c be f8 02 bf 3c
       0.11639006 -0.10544047 -0.13708344 0.023316845

decoder.2.bias f4 [8]
000000 99 0d 08 c0 6a f1 e5 3f e6 cb 1a 3f 07 a5 04 be
       -2.12583 1.7964299 0.60467374 -0.12953578
000010 68 7f cd 3f 00 70 54 be 14 8c 21 c0 96 c2 fc 3f
       1.6054506 -0.2074585 -2.5241747 1.9746883

decoder.4.weight f4 [8, 1, 2, 2]
000000 bb fc 24 bd 99 1c 1b be 2e 37 74 bd 1a 79 44 be
       -0.040280085 -0.15147628 -0.059622936 -0.19186822
000010 45 c1 30 be 64 b3 dd bd 10 52 24 be 78 9f a7 bd
       -0.17261226 -0.10825232 -0.1604693 -0.08184713
000020 41 f1 0b be 52 7a 20 be b4 8b 83 bd 3c 3c 9d bd
       -0.1366625 -0.15671661 -0.06423131 -0.076775044
000030 23 fa 48 bd fa d0 aa bd 10 5c 70 be da f8 76 be
       -0.049066674 -0.0834064 -0.23472619 -0.24118367
000040 05 28 5f bd c1 54 14 be 0d d1 6f bd 14 98 2d be
       -0.054481525 -0.14485456 -0.058548976 -0.16952544
000050 d2 81 1d bd f7 64 3f bd e2 28 0a be ba e7 0c be
       -0.038453884 -0.046727147 -0.13492158 -0.13760272
000060 c2 fc 2b be 63 ea 92 bd 30 c1 e7 bd 90 e8 9a bc
       -0.16795638 -0.07173612 -0.113161445 -0.018909723
000070 f7 6f ef 3d 80 6c 12 3e 1c cb 19 3e 43 9b 22 3e
       0.116912775 0.14299202 0.15018886 0.1587954
