lessons/lesson-7/sample-weights.pt (torch_old, 882101 bytes, 16 tensors)

encoder.0.weight f4 [128, 784]
000000 eb 22 24 3c eb 22 24 3c eb 22 24 3c eb 22 24 3c
       0.010018091 0.010018091 0.010018091 0.010018091
000010 eb 22 24 3c eb 22 24 3c eb 22 24 3c eb 22 24 3c
       0.010018091 0.010018091 0.010018091 0.010018091
000020 eb 22 24 3c eb 22 24 3c eb 22 24 3c eb 22 24 3c
       0.010018091 0.010018091 0.010018091 0.010018091
000030 eb 22 24 3c eb 22 24 3c eb 22 24 3c eb 22 24 3c
       0.010018091 0.010018091 0.010018091 0.010018091
000040 eb 22 24 3c eb 22 24 3c eb 22 24 3c eb 22 24 3c
       0.010018091 0.010018091 0.010018091 0.010018091
000050 eb 22 24 3c eb 22 24 3c eb 22 24 3c eb 22 24 3c
       0.010018091 0.010018091 0.010018091 0.010018091
000060 eb 22 24 3c eb 22 24 3c eb 22 24 3c eb 22 24 3c
       0.010018091 0.010018091 0.010018091 0.010018091
000070 eb 22 24 3c eb 22 24 3c eb 22 24 3c eb 22 24 3c
       0.010018091 0.010018091 0.010018091 0.010018091
000080 eb 22 24 3c eb 22 24 3c eb 22 24 3c eb 22 24 3c
       0.010018091 0.010018091 0.010018091 0.010018091
000090 eb 22 24 3c eb 22 24 3c eb 22 24 3c eb 22 24 3c
       0.010018091 0.010018091 0.010018091 0.010018091
0000a0 eb 22 24 3c eb 22 24 3c 12 ae 23 3c c2 9a 23 3c
       0.010018091 0.010018091 0.009990232 0.009985628
0000b0 7e 49 24 3c 84 29 24 3c eb 22 24 3c eb 22 24 3c
       0.0100272875 0.010019664 0.010018091 0.010018091
0000c0 eb 22 24 3c eb 22 24 3c eb 22 24 3c eb 22 24 3c
       0.010018091 0.010018091 0.010018091 0.010018091
0000d0 eb 22 24 3c eb 22 24 3c eb 22 24 3c eb 22 24 3c
       0.010018091 0.010018091 0.010018091 0.010018091
0000e0 eb 22 24 3c eb 22 24 3c eb 22 24 3c eb 22 24 3c
       0.010018091 0.010018091 0.010018091 0.010018091
0000f0 eb 22 24 3c eb 22 24 3c b3 24 24 3c b2 28 24 3c
       0.010018091 0.010018091 0.010018515 0.010019468
000100 fb 27 24 3c d2 08 24 3c e3 e6 23 3c a5 1c 26 3c
       0.010019298 0.010011869 0.010003778 0.010138665
000110 c5 d7 25 3c 5e 39 20 3c bd 3c 1b 3c 2e 28 16 3c
       0.010122244 0.009779302 0.00947493 0.009164853
000120 d1 19 19 3c d7 67 1f 3c 4c 62 22 3c 29 f5 23 3c
       0.009344534 0.009729347 0.009911131 0.010007181
000130 f5 08 24 3c 7b 1c 24 3c eb 22 24 3c eb 22 24 3c
       0.010011901 0.010016556 0.010018091 0.010018091
000140 eb 22 24 3c eb 22 24 3c eb 22 24 3c eb 22 24 3c
       0.010018091 0.010018091 0.010018091 0.010018091
000150 eb 22 24 3c eb 22 24 3c eb 22 24 3c eb 22 24 3c
       0.010018091 0.010018091 0.010018091 0.010018091
000160 eb 22 24 3c eb 22 24 3c eb 22 24 3c d6 29 24 3c
       0.010018091 0.010018091 0.010018091 0.01001974
000170 bb 24 24 3c 5d d7 23 3c 8d 5e 27 3c 79 e6 28 3c
       0.010018523 0.010000077 0.010215414 0.010308855
000180 4a 99 26 3c 30 ba 1c 3c ae 0a 15 3c 95 43 19 3c
       0.010168383 0.009565875 0.0090967845 0.009354492
000190 e6 be 1b 3c a6 1e 24 3c 61 72 20 3c 10 13 23 3c
       0.009505963 0.010017073 0.009792895 0.009953275
0001a0 8f f1 23 3c ab e5 23 3c b1 0e 24 3c eb 22 24 3c
       0.0100063225 0.010003488 0.010013268 0.010018091
0001b0 eb 22 24 3c eb 22 24 3c eb 22 24 3c eb 22 24 3c
       0.010018091 0.010018091 0.010018091 0.010018091
0001c0 eb 22 24 3c eb 22 24 3c eb 22 24 3c eb 22 24 3c
       0.010018091 0.010018091 0.010018091 0.010018091
0001d0 eb 22 24 3c dc f5 23 3c d6 d1 23 3c 20 54 23 3c
       0.010018091 0.010007348 0.009998759 0.009968787
0001e0 54 fd 21 3c 43 50 11 3c 76 4b fc 3b 87 39 ce 3b
       0.009887058 0.008869234 0.0076994253 0.006293479
0001f0 ad 4c f2 3b 67 fd ec 3b 11 32 f0 3b d4 df 1d 3c
       0.0073943944 0.0072323564 0.007330187 0.009635884
000200 b9 cc 28 3c c8 84 31 3c b0 d7 37 3c 66 4d 3a 3c
       0.010302716 0.01083488 0.0112208575 0.011370992
000210 8b 0a 30 3c 62 70 22 3c fd 24 22 3c 8e b8 23 3c
       0.010744701 0.009914489 0.009896514 0.009992732
000220 f9 2f 24 3c a5 61 24 3c eb 22 24 3c eb 22 24 3c
       0.010021203 0.010033046 0.010018091 0.010018091
000230 eb 22 24 3c eb 22 24 3c ef 22 24 3c eb 22 24 3c
       0.010018091 0.010018091 0.010018094 0.010018091
000240 4a 33 24 3c 95 f4 23 3c e4 52 23 3c ca 7c 22 3c
       0.010021994 0.010007043 0.009968493 0.009917447
000250 c2 cb 03 3c 75 99 ac 3b 72 e0 af 3b ba 45 87 3b
       0.008044185 0.005267317 0.005367332 0.004128185
000260 f2 5a 5a 3b a1 ae a1 3b 97 44 d0 3b 35 8e 07 3c
       0.0033318368 0.0049341475 0.006355833 0.008273651
000270 b4 ec 64 3c 93 0c 77 3c 6c 83 5b 3c 04 cc 4d 3c
       0.01397245 0.0150786815 0.013398033 0.012560848
000280 b5 ab 4f 3c fd 37 13 3c 42 09 fa 3b a3 c6 0d 3c
       0.0126752155 0.008985517 0.007630498 0.008653316
000290 57 3b 0f 3c 3c 89 1b 3c eb 22 24 3c eb 22 24 3c
       0.008742175 0.009493168 0.010018091 0.010018091
0002a0 eb 22 24 3c eb 22 24 3c ef 22 24 3c eb 22 24 3c
       0.010018091 0.010018091 0.010018094 0.010018091
0002b0 83 3c 24 3c 3d 5d 23 3c 2b 9e 1e 3c e9 f1 b0 3b
       0.010024193 0.00997096 0.009681265 0.0053999317
0002c0 9b 34 21 3a fd ad 5e 3a 93 a0 9d 3a 15 59 ea 3a
       0.00061495014 0.0008494554 0.0012026004 0.0017879332
0002d0 fc 89 33 3b bd 0f 89 3a f7 7e ac b7 0b b7 61 3a
       0.0027395478 0.0010456961 -2.056312e-05 0.00086103444
0002e0 c9 2e 49 3b df 73 00 3b 4d c1 e9 38 a5 00 d2 38
       0.0030698052 0.0019600315 0.00011146311 0.000100137004
0002f0 23 0e 4e 3b 1d ef 26 3b 06 c5 23 3b 46 6e 1a 3b
       0.0031441532 0.0025472112 0.0024989261 0.0023564263
000300 19 c1 8c 3b 65 57 e8 3b bc 2f 24 3c eb 22 24 3c
       0.00429548 0.0070904964 0.010021146 0.010018091
000310 eb 22 24 3c eb 22 24 3c b0 22 24 3c 37 22 24 3c
       0.010018091 0.010018091 0.010018036 0.010017923
000320 c8 13 24 3c 9c db 1d 3c fd 35 8b 3b ae 62 82 36
       0.010014482 0.0096348785 0.0042483793 3.8857897e-06
000330 e4 be db 37 bd d0 ba 37 b8 7b 8b 36 c2 ca bd 38
       2.6195725e-05 2.227013e-05 4.1569256e-06 9.049989e-05
000340 04 f3 43 36 c4 1b 20 36 6c 21 34 b6 c7 fe 97 b4
       2.9198718e-06 2.385802e-06 -2.6841544e-06 -2.8311317e-07
000350 d9 dc 1f b5 10 37 79 37 a0 0b 97 b3 25 bd f8 36
       -5.955349e-07 1.4854377e-05 -7.0336e-08 7.4129953e-06
000360 3d 6d 9c 3a 68 80 54 3b f4 20 80 3b cf 0f 8d 3b
       0.0011934411 0.003242517 0.0039101783 0.004304863
000370 2e 43 98 3b 9a 8b e9 3b b1 e5 23 3c eb 22 24 3c
       0.0046466803 0.0071272375 0.010003493 0.010018091
000380 e5 dd 23 3c eb 22 24 3c b2 21 24 3c 43 22 24 3c
       0.010001634 0.010018091 0.010017799 0.010017934
000390 53 9f 1f 3c 4d 59 0f 3c 6e df f0 39 3d 03 33 b7
       0.009742576 0.008749318 0.00045942835 -1.0669985e-05
0003a0 03 a8 91 37 74 bc 10 b7 27 42 93 36 20 be 16 b6
       1.7363584e-05 -8.6269465e-06 4.3886425e-06 -2.246241e-06
0003b0 cd 13 11 b6 4b ed 67 37 29 4d 36 b7 3b d5 56 b5
       -2.161821e-06 1.3823922e-05 -1.0866011e-05 -8.0031504e-07
0003c0 66 48 ef 35 b1 06 58 b7 bc 91 0a 37 5a fe b2 b6
       1.7827958e-06 -1.2876161e-05 8.259372e-06 -5.334424e-06
0003d0 ea 47 3b 3b 83 6a a4 3b 94 02 d7 3b 7b e9 12 3c
       0.00285768 0.00501758 0.0065615866 0.008966799
0003e0 bc ad 16 3c e0 bb 20 3c eb 01 23 3c eb 22 24 3c
       0.009196695 0.009810418 0.009949188 0.010018091
0003f0 eb 22 24 3c eb 22 24 3c 8b 25 24 3c ea 4b 24 3c
       0.010018091 0.010018091 0.010018717 0.010027865

encoder.0.bias f4 [128]
000000 eb 22 24 bc bc ac 20 b6 c9 6e 05 b4 23 55 55 ba
       -0.010018091 -2.3942403e-06 -1.2426894e-07 -0.00081379915
000010 ea cf ac bc 86 4e c3 b4 3c 00 c8 bd 95 c3 8c b2
       -0.021095235 -3.6378714e-07 -0.0976567 -1.6387085e-08
000020 c8 d6 63 bc 67 37 2d be 03 35 f7 b7 24 8b 9a b9
       -0.013906188 -0.16915666 -2.946938e-05 -0.00029476837
000030 67 57 69 ba 62 a6 53 af 6f d3 80 b1 f9 3f 04 b9
       -0.00089012686 -1.9249449e-10 -3.7493275e-09 -0.00012612333
000040 94 55 84 b3 d2 e6 d0 b4 d5 a1 ab bd e7 16 82 a9
       -6.1622956e-08 -3.8910963e-07 -0.083804764 -5.7771327e-14
000050 21 fb a4 b4 0e 60 d5 b1 53 53 ba bd 33 48 8a bd
       -3.07301e-07 -6.210036e-09 -0.09097924 -0.06752052
000060 47 f6 64 b6 dd 93 e7 bc 86 bb 12 ac 76 8e ae b9
       -3.4118e-06 -0.028268749 -2.0851944e-12 -0.00033294008
000070 9d a6 0a ba bb b6 d4 ba 24 8c c4 b7 55 47 86 bb
       -0.00052891095 -0.0016228774 -2.3430279e-05 -0.004097859
000080 59 57 5d b3 3e 79 48 bd c5 e2 e4 b9 1a 46 2d b9
       -5.1535014e-08 -0.04894375 -0.00043656505 -0.0001652468
000090 78 2f a1 b7 95 56 99 b6 6d 54 f6 b7 4b 01 a9 b8
       -1.92148e-05 -4.569835e-06 -2.9364799e-05 -8.058789e-05
0000a0 d0 2b 81 bd a4 e2 56 bc ed f9 1b bc ec e0 26 ac
       -0.06307185 -0.013115559 -0.009520036 -2.3714876e-12
0000b0 dd 84 b7 b8 33 7d 75 a2 8a e5 86 bc c7 50 10 b9
       -8.750868e-05 -3.3269971e-18 -0.016466875 -0.00013763002
0000c0 60 86 9c bb 90 9b 50 b9 0e 8c 95 b7 0e 68 23 a2
       -0.004776761 -0.00019894377 -1.7827402e-05 -2.2145705e-18
0000d0 26 77 b5 b8 cd 5f 7d 9c 82 31 3b af bf d3 88 bc
       -8.652946e-05 -8.38345e-22 -1.702514e-10 -0.01670253
0000e0 a1 1d 7f b9 1a a2 4d b4 5d 09 8e bb 80 3a 42 bd
       -0.00024329733 -1.9151085e-07 -0.0043346123 -0.04741907
0000f0 d6 7d 9e bc 90 09 83 9e 5f 3a 26 bd df 18 3d bd
       -0.019347113 -1.387412e-20 -0.04058301 -0.046166297
000100 78 72 fa b6 64 17 05 b2 c4 7e b6 3c 3e 33 5d af
       -7.4639065e-06 -7.746937e-09 0.022277243 -2.0118038e-10
000110 fc 81 08 ac fe eb c2 b7 12 6c bb b7 36 e6 2e 9f
       -1.9398918e-12 -2.3236495e-05 -2.2342461e-05 -3.703636e-20
000120 c4 60 a7 b8 ca 65 28 be 65 a6 0d b3 7a 26 bd bb
       -7.9812045e-05 -0.1644508 -3.2980456e-08 -0.005772409
000130 12 68 3f bb df 87 74 3d d5 fc 1b b9 29 83 cb bd
       -0.0029206318 0.05969989 -0.00014876139 -0.09937126
000140 17 57 af b3 b3 a4 e9 bd c1 09 5a ba 67 33 a6 ae
       -8.164914e-08 -0.11408367 -0.00083174935 -7.557937e-11
000150 d8 43 17 b7 68 27 6e ba 92 ad 50 bd e5 9c 08 ba
       -9.0160975e-06 -0.00090848515 -0.05094678 -0.00052113674
000160 30 6f 44 a4 04 c0 22 bb a1 c9 8e b6 b9 f9 96 ab
       -4.2594905e-17 -0.0024833689 -4.2554025e-06 -1.0727453e-12
000170 98 2f 91 aa 5f 84 a6 bd 45 21 02 b0 6d ca 12 ae
       -2.57902e-13 -0.081307165 -4.7341003e-10 -3.3376347e-11
000180 5a 45 88 b3 2d 78 87 b9 47 af b1 9b 71 a6 82 a3
       -6.3456085e-08 -0.00025838744 -2.9395464e-22 -1.4165119e-17
000190 31 ad 89 af c7 79 f5 b8 4e 57 ef bb 38 a7 36 a8
       -2.5043215e-10 -0.00011705193 -0.0073041087 -1.0139289e-14
0001a0 0a 0f bf b6 0f 92 63 3c d1 f9 f9 bd 2e 7c c2 bd
       -5.6939944e-06 0.013889804 -0.12205852 -0.09496342
0001b0 d5 05 6d be c5 ad 83 bd cd 89 93 bc bc ae 58 b5
       -0.23146756 -0.06429628 -0.018010044 -8.072054e-07
0001c0 3a 13 cf ba 6a 9a 1d af 5b 43 35 b6 cd 90 27 b9
       -0.0015798577 -1.4333926e-10 -2.7010308e-06 -0.00015980304
0001d0 1c 33 07 ae 11 3b e0 b1 fd db 94 bc fd 8e e5 a4
       -3.074084e-11 -6.525973e-09 -0.018171305 -9.955515e-17
0001e0 44 52 f2 a3 f3 87 e0 b8 10 54 63 b5 90 ac 68 ba
       -2.6272533e-17 -0.00010706475 -8.4686417e-07 -0.00088758115
0001f0 db 5e 26 be 8a 45 99 ac 51 84 3b b7 ea 06 ef b8
       -0.16247122 -4.356242e-12 -1.1176876e-05 -0.00011397696

encoder.2.weight f4 [64, 128]
000000 51 be 1e 80 89 1c 12 00 c9 82 20 80 e8 3f 29 80
       -2.823338e-39 1.663275e-39 -2.985653e-39 -3.78818e-39
000010 06 4a 16 82 88 18 13 00 74 d9 2b 00 43 3c 17 80
       -1.1041503e-37 1.753675e-39 4.026934e-39 -2.133834e-39
000020 c2 39 13 80 a3 14 17 80 fc 60 1e 00 36 45 c9 b1
       -1.765594e-39 -2.11962e-39 2.789856e-39 -5.8577383e-09
000030 8e b1 23 80 d8 b9 13 80 c4 ca 24 80 7e 12 21 80
       -3.277937e-39 -1.811543e-39 -3.378816e-39 -3.037205e-39
000040 cb 0d 23 82 ef 99 02 00 97 ad e1 ba 03 75 1f 80
       -1.1979307e-37 2.38892e-40 -0.0017217872 -2.888876e-39
000050 9d 8c 27 80 7f 70 17 00 a9 5f 06 80 4a 93 14 00
       -3.632027e-39 2.152572e-39 -5.8533e-40 1.889547e-39
000060 e3 f1 10 80 e2 29 11 80 f0 17 1e 80 a3 29 22 00
       -1.55614e-39 -1.576228e-39 -2.763652e-39 3.137343e-39
000070 8c 1b 15 80 49 21 1b 00 98 79 00 00 8e be 1f 00
       -1.938427e-39 2.491499e-39 4.362e-41 2.915259e-39
000080 35 61 01 80 a1 96 0d 00 e8 e8 12 00 8a 8b 17 80
       -1.26707e-40 1.247897e-39 1.73659e-39 -2.162274e-39
000090 ab b8 35 00 20 6e 0b 80 5b 0f 38 80 8d 45 29 80
       4.933528e-39 -1.049696e-39 -5.148296e-39 -3.790205e-39
0000a0 fe 51 10 00 51 98 14 00 b1 fb 3c 00 8f c0 01 80
       1.498781e-39 1.891351e-39 5.60042e-39 -1.60913e-40
0000b0 53 61 0d 80 46 71 1a 80 87 8a d0 b8 61 5f ed bc
       -1.228775e-39 -2.428358e-39 -9.9440156e-05 -0.028976144
0000c0 dc 82 1d 80 8e 19 15 80 19 ee 1e 80 e0 99 1b 80
       -2.710173e-39 -1.937713e-39 -2.840478e-39 -2.534758e-39
0000d0 5c 8c 04 80 5b bc 3a 00 88 8d 1a 00 7d 7e 20 80
       -4.17693e-40 5.394028e-39 2.438495e-39 -2.984111e-39
0000e0 6e 05 17 00 e5 00 34 00 8b b9 11 00 5c 0a f1 b0
       2.114164e-39 4.775767e-39 1.627764e-39 -1.7538002e-09
0000f0 ef 47 09 00 52 aa 33 00 a0 ca 35 80 8c 95 2f 11
       8.52324e-40 4.74471e-39 -4.93997e-39 1.3851149e-28
000100 a6 08 07 00 76 fa 20 00 5d 9a 6d bd e9 66 fa af
       6.45951e-40 3.028584e-39 -0.05800854 -4.5547857e-10
000110 9d be 02 80 04 6b 0f 00 5f 2a 03 00 de 87 1a 00
       -2.5205e-40 1.415922e-39 2.90706e-40 2.436463e-39
000120 ed 7e 34 80 17 a0 37 00 9e 01 c6 81 4c d8 1d 00
       -4.820978e-39 5.108382e-39 -7.2736034e-38 2.740822e-39
000130 d9 a1 42 80 3e 9c 3a bd 4e c3 16 00 6d 93 05 00
       -6.119203e-39 -0.04555916 2.090443e-39 5.12064e-40
000140 7c ed 2d 80 d0 5c 14 80 22 d2 08 00 2c 64 e2 81
       -4.21779e-39 -1.870005e-39 8.10065e-40 -8.316303e-38
000150 db 0a 1b 80 67 20 79 bd ff 4d 28 bd e3 17 18 80
       -2.483453e-39 -0.060821917 -0.041090008 -2.212621e-39
000160 1a d3 3e 80 92 2c 0f 80 ca 60 1c 80 38 f5 1e 00
       -5.76953e-39 -1.393521e-39 -2.606115e-39 2.843033e-39
000170 6b 02 15 80 5f 46 d8 bd 29 b9 28 00 ad dd 52 80
       -1.929413e-39 -0.10560297 3.739843e-39 -7.610033e-39
000180 4e 79 c9 bb 8d f9 05 00 c3 4f 11 00 95 24 26 80
       -0.006148494 5.487e-40 1.589817e-39 -3.502872e-39
000190 17 12 12 00 52 9d 25 00 ec fe d8 2e 2c ce 00 00
       1.659528e-39 3.454349e-39 9.867826e-11 7.396e-41
0001a0 18 55 32 00 06 f7 15 b6 01 cf ab 90 56 76 37 b8
       4.6223e-39 -2.2346517e-06 -6.776655e-29 -4.374081e-05
0001b0 fc ac 09 00 ea 58 0c 80 5b 07 0c 80 92 94 0b 80
       8.88575e-40 -1.133922e-39 -1.104665e-39 -1.063487e-39
0001c0 b2 55 45 00 c2 28 1e 00 b2 3e 1a 80 ac 46 45 80
       6.367391e-39 2.769686e-39 -2.410214e-39 -6.362002e-39
0001d0 78 7d 38 00 36 2a 3b 00 d6 a6 34 bd 66 aa 1a 00
       5.187797e-39 5.433437e-39 -0.04410442 2.44885e-39
0001e0 28 ae 04 00 11 d3 00 80 14 a0 e4 80 3a 4e 06 00
       4.29817e-40 -7.5716e-41 -2.0995918e-38 5.79075e-40
0001f0 a3 c5 0a 00 17 e1 10 00 fa af 19 00 d7 4b 03 80
       9.89254e-40 1.550115e-39 2.359016e-39 -3.02713e-40
000200 2c d8 29 00 23 3e 8a aa 07 04 10 80 b3 49 0c 80
       3.842803e-39 -2.455684e-13 -1.470813e-39 -1.128464e-39
000210 c4 1d 15 00 82 ad a9 01 ec aa 4c 80 14 36 19 00
       1.939223e-39 6.2329767e-38 -7.040813e-39 2.315287e-39
000220 a8 00 17 00 a4 09 02 80 48 55 29 00 1b 31 3e 80
       2.112452e-39 -1.8713e-40 3.795848e-39 -5.711416e-39
000230 68 1f 81 81 a1 42 0b 00 a3 d8 21 80 38 37 55 81
       -4.743218e-38 1.034092e-39 -3.108286e-39 -3.916154e-38
000240 7e d9 25 80 42 26 a3 01 75 d7 86 bb ad 58 13 80
       -3.475935e-39 5.993164e-38 -0.00411504 -1.776685e-39
000250 fd 23 1c 00 06 4f 10 00 92 7d 12 00 cb d3 75 82
       2.584304e-39 1.497716e-39 1.698085e-39 -1.8060539e-37
000260 44 61 0d 80 4f 7f 09 00 a1 ca 15 80 28 af 10 80
       -1.228754e-39 8.72189e-40 -2.001235e-39 -1.532202e-39
000270 8e a3 20 80 a9 f0 10 80 87 08 4f 00 49 dd 11 80
       -2.997408e-39 -1.5557e-39 7.258063e-39 -1.640586e-39
000280 7a 9c 55 02 d7 90 17 00 e8 11 3d 80 ca 7e 45 80
       1.5693675e-37 2.164175e-39 -5.608389e-39 -6.382133e-39
000290 a4 1d 10 00 84 42 02 00 77 bb 1c 80 12 22 0d 80
       1.480001e-39 2.07532e-40 -2.638644e-39 -1.206084e-39
0002a0 19 82 45 00 27 9b 49 00 d7 8a 0e 80 84 ad 32 80
       6.38332e-39 6.75965e-39 -1.335503e-39 -4.65402e-39
0002b0 98 b2 24 00 15 a7 18 80 dc 35 0b ba 0e a7 0d 80
       3.370145e-39 -2.26399e-39 -0.0005310455 -1.25379e-39
0002c0 b8 40 38 90 11 f1 1b 00 92 12 04 00 f6 84 1d 80
       -3.633746e-29 2.566037e-39 3.74004e-40 -2.710927e-39
0002d0 9c 86 a4 81 b2 3d 2d 00 14 ac 0c 00 45 8f 20 00
       -6.043724e-38 4.15473e-39 1.163756e-39 2.990131e-39
0002e0 5e aa 18 80 ef 95 48 80 7c 4c 32 80 6d 7d 07 80
       -2.265168e-39 -6.665942e-39 -4.619212e-39 -6.87843e-40
0002f0 bc 63 3c 00 a3 3e 82 b8 0a 10 fa 01 ef ef 1c 80
       5.545908e-39 -6.21055e-05 9.185851e-38 -2.657466e-39
000300 fb a2 2f 81 cb 0c 1e 00 68 10 53 be 26 40 05 80
       -3.2259356e-38 2.759654e-39 -0.20611727 -4.8219e-40
000310 a8 17 2b 80 0f 93 09 82 4f 2c 0e 00 7c c1 34 00
       -3.957413e-39 -1.0107374e-37 1.301592e-39 4.844855e-39
000320 38 73 0d 80 38 f3 2f 80 80 a8 ff 81 e4 4b 12 80
       -1.235194e-39 -4.403519e-39 -9.391399e-38 -1.680263e-39
000330 10 dc 09 80 a8 76 a2 bd 87 39 13 80 11 06 0f 80
       -9.05463e-40 -0.07932788 -1.765511e-39 -1.379709e-39
000340 c4 b0 8b 01 6c b1 03 80 b1 c2 10 80 1d da 50 00
       5.131418e-38 -3.39153e-40 -1.53921e-39 7.425084e-39
000350 58 18 1d 80 76 32 b7 bb 8d 5b 86 bd fa e0 0c 80
       -2.671962e-39 -0.005590732 -0.06560431 -1.182732e-39
000360 54 21 02 00 ee 65 11 80 b2 ad 0e 80 e5 93 0e 80
       1.95627e-40 -1.597769e-39 -1.348007e-39 -1.338752e-39
000370 36 76 1e 80 78 9b df bd 53 95 0d 80 85 11 11 00
       -2.797471e-39 -0.10918325 -1.247429e-39 1.567488e-39
000380 68 b0 16 80 d8 ce e8 81 96 a9 15 00 a1 3d 04 00
       -2.083664e-39 -8.5520147e-38 1.989381e-39 3.8945e-40
000390 26 3c 0e 80 43 87 1c 80 a5 01 0b 80 9c e0 3a 00
       -1.307274e-39 -2.619917e-39 -1.01078e-39 5.407033e-39
0003a0 50 c9 17 80 25 06 a0 bc c0 3a 82 b9 74 96 19 bb
       -2.184434e-39 -0.01953418 -0.00024839304 -0.0023435624
0003b0 31 c2 94 01 81 42 43 00 31 d0 35 80 cd 60 30 80
       5.4645265e-38 6.176835e-39 -4.941966e-39 -4.44283e-39
0003c0 fb ad 40 00 49 f2 06 80 0b 63 10 80 a5 d1 95 01
       5.939884e-39 -6.37929e-40 -1.504898e-39 5.503478e-38
0003d0 b6 3b 29 80 72 14 2c 00 a8 6c 72 ba 3a ab 2d 00
       -3.786676e-39 4.048096e-39 -0.00092477584 4.194022e-39
0003e0 6d 28 08 00 10 86 24 81 61 a1 24 80 e0 21 14 80
       7.49186e-40 -3.0218228e-38 -3.36397e-39 -1.848862e-39
0003f0 9a 32 0a 80 2a cd 23 00 42 83 06 80 58 6c 1c 80
       -9.36507e-40 3.287841e-39 -5.981e-40 -2.61026e-39

encoder.2.bias f4 [64]
000000 ea 04 21 bb 41 bf 74 aa 2e c6 0f be cb 00 a0 38
       -0.002456958 -2.1737908e-13 -0.14040443 7.629542e-05
000010 81 a1 93 bd cf 66 c7 3b e6 18 b6 ab e2 57 81 b2
       -0.07208539 0.006085254 -1.2938788e-12 -1.5057541e-08
000020 6f 3e 97 af d1 f2 2f 3c ba 14 11 80 f2 02 3b 35
       -2.7511102e-10 0.010739044 -1.568639e-39 6.9667215e-07
000030 90 d6 74 39 c1 6c 02 be 03 cd 1c 3e ac 5f 83 b9
       0.00023349584 -0.12736799 0.15312581 -0.00025057548
000040 ea de 92 bb 4a 77 8f bd 06 a8 90 ae 22 9a be af
       -0.00448214 -0.070051745 -6.578209e-11 -3.4670317e-10
000050 0f 64 25 b1 87 94 87 b6 2a 55 29 bc be 00 a2 bd
       -2.4067537e-09 -4.0406044e-06 -0.010335246 -0.07910298
000060 2b 6d 25 3d 13 c4 e8 bd b6 fd d0 3d c9 2a 7c be
       0.040387314 -0.11365523 0.102046415 -0.24625696
000070 0b 6e 57 a9 5f 06 d3 ba fc 8b a4 bb 03 4a 92 bd
       -4.7835037e-14 -0.0016099921 -0.0050215703 -0.07143023
000080 03 ec f5 bc 9a 4e 80 ab 56 96 67 be a6 17 af af
       -0.030019766 -9.116763e-13 -0.22615942 -3.1849118e-10
000090 d4 37 3a b5 5a 00 93 ae 4f f0 1d bc 7b df 54 3b
       -6.937164e-07 -6.6848485e-11 -0.009639814 0.0032481838
0000a0 ea b9 27 3e 1c 4e 36 bd c2 56 46 bd 22 57 c1 ba
       0.16379514 -0.044508085 -0.048422582 -0.0014750699
0000b0 65 6d 17 bc fd 33 62 bb 92 0b 8d be bf d9 82 b8
       -0.00924239 -0.003451585 -0.2754789 -6.2394414e-05
0000c0 a1 3a fe ba e1 96 bb be 52 ab 0b bc 2e f7 77 b7
       -0.0019396135 -0.3663855 -0.008524733 -1.4779898e-05
0000d0 ab 83 ab 3b 66 3e f9 3c e8 9a 41 3e d9 ba 81 ba
       0.005234202 0.030425262 0.18906748 -0.0009897604
0000e0 48 b6 3e aa 4f 11 8a bb 99 b4 52 3e d4 da b4 a5
       -1.6938631e-13 -0.004213489 0.20576705 -3.1373306e-16
0000f0 87 f3 9d b5 14 66 6a 3d 95 9a 8c bd 5a d0 cb b9
       -1.1768287e-06 0.057226256 -0.06865422 -0.0003887441

encoder.4.weight f4 [12, 64]
000000 78 53 12 00 85 38 25 00 ee 62 4b bc d2 55 49 00
       1.682982e-39 3.418189e-39 -0.012413723 6.734778e-39
000010 b1 52 0b 00 8a 64 15 80 66 1e 2b 80 f5 12 02 80
       1.039855e-39 -1.964612e-39 -3.959831e-39 -1.90471e-40
000020 4f 19 1d 80 f1 86 02 80 7b 41 12 00 b1 10 2d 80
       -2.672308e-39 -2.32079e-40 1.676529e-39 -4.138585e-39
000030 3f e3 02 00 37 72 20 00 10 34 40 bc 8f 1c 23 80
       2.65192e-40 2.979708e-39 -0.011731163 -3.224487e-39
000040 71 f3 1a 80 e6 fa 16 80 10 c2 2e 00 e3 18 29 80
       -2.475053e-39 -2.110386e-39 4.29405e-39 -3.774183e-39
000050 c1 3f 1c 80 04 94 9a 96 86 70 35 00 40 df 21 00
       -2.594264e-39 -2.4973453e-25 4.907647e-39 3.110658e-39
000060 0c c9 3d 80 46 7d 24 80 b5 e2 ce bd 3b eb ff bc
       -5.674087e-39 -3.351018e-39 -0.10101835 -0.031240096
000070 29 fe 22 00 40 7a 22 00 da 67 47 80 f6 55 49 00
       3.213582e-39 3.166262e-39 -6.557575e-39 6.734828e-39
000080 f5 3a b8 bb bc f4 52 00 7a 48 47 80 3f a6 23 00
       -0.0056222626 7.618305e-39 -6.54632e-39 3.27388e-39
000090 af ec 24 80 14 ff 32 00 23 8f 22 80 4d ae 47 80
       -3.390984e-39 4.68328e-39 -3.173755e-39 -6.582848e-39
0000a0 76 cd 70 bc cf 81 14 80 af 0a 4a 00 c9 02 0e 00
       -0.014697423 -1.883276e-39 6.799659e-39 1.286696e-39
0000b0 c8 ef 09 80 bb 0a 15 00 45 a8 ac aa f1 d4 14 00
       -9.12537e-40 1.932395e-39 -3.0670098e-13 1.913099e-39
0000c0 44 db 09 00 92 90 96 b9 9a 12 21 00 6e 89 22 80
       9.05177e-40 -0.00028717943 3.037244e-39 -3.171707e-39
0000d0 07 96 19 00 7c 8f 1a 80 f7 db 20 2c 0f 95 23 00
       2.349707e-39 -2.439195e-39 2.2859473e-12 3.267715e-39
0000e0 25 53 1a 80 15 9f 1b 80 30 31 97 bd 0e cf 48 80
       -2.41755e-39 -2.536626e-39 -0.07382429 -6.686433e-39
0000f0 1e 2e 30 00 c8 c8 1d 00 45 0e 09 00 bc 01 20 00
       4.424648e-39 2.735256e-39 8.31638e-40 2.939358e-39
000100 49 06 06 00 ef ea 2c 80 24 fc d9 a3 0f 2d 31 80
       5.53268e-40 -4.12504e-39 -2.3633973e-17 -4.516103e-39
000110 24 61 b9 01 39 69 19 00 d8 ef 11 00 0a 46 06 00
       6.8097657e-38 2.333634e-39 1.647243e-39 5.76138e-40
000120 bc 8e 16 00 05 f4 28 00 b1 0f 0b 00 71 2c 36 80
       2.071584e-39 3.760958e-39 1.01582e-39 -4.97506e-39
000130 a2 f4 c9 01 ec 6b e2 01 e0 9b 29 b9 6a 69 86 82
       7.418677e-38 8.317415e-38 -0.00016175164 -1.9750035e-37
000140 ec fb 3e 00 7d 2f 3b 80 a7 a7 18 80 fa 0b a0 01
       5.784173e-39 -5.43533e-39 -2.264194e-39 5.8791903e-38
000150 9f 7c 29 00 24 db 18 00 3e f8 33 80 d5 93 17 00
       3.809961e-39 2.282665e-39 -4.772663e-39 2.165249e-39
000160 68 0c d8 00 83 6d 2f 80 47 d4 8a bc c4 a2 84 ba
       1.9840918e-38 -4.355554e-39 -0.016946925 -0.0010119309
000170 8e e7 41 80 9c 54 1f 00 f4 49 53 81 73 6c 3c 00
       -6.052373e-39 2.877253e-39 -3.8807638e-38 5.549034e-39
000180 b5 4b f4 ba 3c 18 55 81 c0 44 04 00 87 61 1c 80
       -0.0018638285 -3.913931e-38 3.92005e-40 -2.60638e-39
000190 44 50 a9 01 58 0b 02 00 00 02 42 00 6d f5 0d 80
       6.219597e-38 1.8774e-40 6.06186e-39 -1.281904e-39
0001a0 57 74 fb b3 96 8b 22 00 0c 16 9a 01 79 2f 33 80
       -1.17092604e-07 3.172481e-39 5.66023e-38 -4.70064e-39
0001b0 85 fa 21 80 20 9c de 01 f4 05 2f 00 a8 2d 2f 00
       -3.120441e-39 8.177395e-38 4.318404e-39 4.332647e-39
0001c0 4f 2b 25 80 37 70 04 bb ab 5c 3f 00 81 02 35 80
       -3.41345e-39 -0.0020208487 5.818879e-39 -4.86818e-39
0001d0 e0 d0 1a 00 c1 4e 3d 80 09 03 07 06 4c 14 5b 01
       2.462653e-39 -5.630217e-39 2.5392908e-35 4.023851e-38
0001e0 12 87 3a 00 08 da 00 80 5f d0 de bb 9f 5d 12 00
       5.374913e-39 -7.8215e-41 -0.006799742 1.686624e-39
0001f0 5a 04 21 80 95 9b 05 00 9b 02 05 00 21 a2 9e 81
       -3.032132e-39 5.1499e-40 4.60112e-40 -5.8272677e-38
000200 35 b2 22 80 25 ae 04 00 70 b4 da b7 f0 2d 01 00
       -3.186336e-39 4.29813e-40 -2.6071648e-05 1.08315e-40
000210 3e 3d 94 01 12 51 03 00 fa ca 0e 80 2f f9 32 00
       5.445449e-38 3.04589e-40 -1.358511e-39 4.681165e-39
000220 48 6c 2f 00 27 fb 11 00 9a c1 25 80 41 90 08 00
       4.355112e-39 1.6513e-39 -3.467365e-39 7.86433e-40
000230 8f 79 b2 01 24 4d 15 00 e8 0d 99 bb 16 b2 8b 01
       6.55613e-38 1.956218e-39 -0.004670847 5.1316077e-38
000240 d4 41 31 00 8c 1f 21 00 37 dc 0b 80 70 56 8a 80
       4.523554e-39 3.041888e-39 -1.089189e-39 -1.2704306e-38
000250 b2 f6 13 00 75 97 18 80 20 2b 39 80 86 0c f5 16
       1.833372e-39 -2.258384e-39 -5.250094e-39 3.9589788e-25
000260 d1 fa 0e 02 55 fa 14 80 c3 b6 49 bd 4e e6 d2 ba
       1.0504493e-37 -1.926512e-39 -0.04924656 -0.0016090365
000270 5d 26 05 80 3f 18 41 80 0e c4 12 00 42 d0 02 00
       -4.7294e-40 -5.978005e-39 1.72337e-39 2.5838e-40
000280 34 41 fc b8 3a 8b 47 00 13 bf 02 b0 25 97 40 00
       -0.000120284414 6.570265e-39 -4.756526e-10 5.931692e-39
000290 88 28 06 00 38 da 05 80 69 ef 2e 80 55 52 50 00
       5.65553e-40 -5.3746e-40 -4.310317e-39 7.376375e-39
0002a0 cf e1 8b ba 7c 67 14 80 ef ab 3e 80 0f a1 52 00
       -0.0010672155 -1.873833e-39 -5.755479e-39 7.588288e-39
0002b0 92 1b 0f 00 ff 89 21 80 8d ce 01 00 36 53 3e 80
       1.387423e-39 -3.080075e-39 1.65932e-40 -5.723651e-39
0002c0 69 bf 4d 80 36 46 ad b7 09 cd 0e 80 46 20 14 80
       -7.139998e-39 -2.0655902e-05 -1.35925e-39 -1.848287e-39
0002d0 77 86 0e 80 0e 98 1a 00 9c ea 12 80 a0 21 32 80
       -1.333934e-39 2.44227e-39 -1.737201e-39 -4.603837e-39
0002e0 d7 89 1b 00 b2 63 22 00 f9 61 c3 bc d2 04 0d 00
       2.529006e-39 3.158171e-39 -0.023850428 1.19559e-39
0002f0 90 dd 52 8c 7c 75 1a 80 2a f9 31 80 7c 2c 17 80
       -1.6244486e-31 -2.429868e-39 -4.589323e-39 -2.128174e-39
000300 f1 9f 4b bb e9 0b 0d be 5e 5c 82 be 49 f6 b9 38
       -0.0031070674 -0.13774075 -0.25461096 8.8673616e-05
000310 fe d1 43 3e 04 6a a9 3a 8e d3 44 bc d6 b9 5d 3d
       0.19123074 0.0012925272 -0.012013329 0.054132305
000320 72 bf 1c be a5 6f 00 bd 37 bf 9a b8 5c 52 d9 b7
       -0.15307406 -0.031356473 -7.378909e-05 -2.5906767e-05
000330 d0 cf a9 3a 86 f4 4b be 05 be 5b bf 6f 0f d1 38
       0.001295561 -0.19917497 -0.8583682 9.968771e-05
000340 55 cc e0 b6 b9 1d 21 3d b5 7f f9 bb 18 9e a4 bb
       -6.6995076e-06 0.039334986 -0.007614101 -0.005023729
000350 09 e4 a2 3c c6 fe 7e 3c 61 33 0d 3e 39 98 e8 3d
       0.019884126 0.015563672 0.13789131 0.11357159
000360 0b 14 d7 bb 4b b7 01 3e fc 25 96 bb a4 6d fc be
       -0.0065636686 0.12667577 -0.004582165 -0.493024
000370 99 fb 93 3c ee 52 a8 bb 4b 3d c8 bd dc 16 11 be
       0.018064307 -0.005136839 -0.09777316 -0.14168876
000380 01 9f 1d 3e f6 72 21 bd 10 29 8c be d2 98 4a 35
       0.15392686 -0.039416276 -0.27375078 7.5473247e-07
000390 0b 20 22 3e 4e 76 78 3a 4d 19 89 be f9 68 8b bb
       0.15832536 0.0009478078 -0.26777115 -0.004254457
0003a0 5a 02 98 bf 76 2f 48 3d 3e cb c0 3a 63 e9 b3 3c
       -1.1875718 0.048873387 0.0014709008 0.021961873
0003b0 9a ad 07 be b6 91 fd 3b cd 18 52 bc dc 9c ff 3a
       -0.13249817 0.0077383174 -0.012823296 0.0019501704
0003c0 80 fb 12 3d a1 98 ee 3e 02 47 65 bc bf 0b 8c 3b
       0.03588438 0.46600822 -0.01399398 0.004273861
0003d0 33 5a e6 b6 54 05 b1 3d 5c bb 07 bf 8d 19 f1 ba
       -6.8650347e-06 0.086435944 -0.5302026 -0.0018394456
0003e0 f0 cf d1 31 4c d2 ff 3b 2c 8d bd 3e 95 73 2a bb
       6.1063403e-09 0.0078070518 0.37021768 -0.0026008834
0003f0 16 a8 1a 39 7e 11 63 3c f1 57 83 bc 31 6c 86 3d
       0.00014749201 0.013859151 -0.016033145 0.065636046

encoder.4.bias f4 [12]
000000 0c 23 9c 98 79 e7 14 80 3f ef fe 08 97 a0 d2 be
       -4.0360443e-24 -1.919747e-39 1.5343315e-33 -0.41138145
000010 5b 8d b0 be 7a 61 3a 3f a0 17 6c 3e ab 2f 54 09
       -0.34482846 0.7280499 0.23055887 2.5540985e-33
000020 e4 57 2f 0c 18 a6 43 80 48 77 c4 3e 44 19 0a a8
       1.3507958e-31 -6.212561e-39 0.38372254 -7.6660175e-15

encoder.6.weight f4 [3, 12]
000000 23 69 82 3c 0f a2 dd 3c 05 e7 9c 3c 83 e7 93 3e
       0.015919274 0.027054815 0.019153127 0.28887567
000010 9a c9 30 bc 5a c9 77 be 3a d8 ab bd 70 1f a8 3a
       -0.010790253 -0.24197903 -0.08390851 0.0012826752
000020 e3 0e 8a bd 55 e5 82 b8 ac 66 af bd 8d 11 28 bd
       -0.06741121 -6.2415995e-05 -0.08564505 -0.041032363
000030 83 e8 d9 bd 71 b2 ab 3c 7e 16 1c 3c 31 df 82 3e
       -0.10640051 0.02095911 0.009526847 0.25560907
000040 9a 8b fb bd c6 4b 2b be 72 65 ab 3e 53 fd 44 bc
       -0.12282486 -0.16728124 0.33475834 -0.012023288
000050 33 fe e5 3d 1e aa 89 22 2b 19 32 be 1a 92 ef 3b
       0.11230125 3.7314043e-18 -0.17392413 0.007311118
000060 cd 2d 0a 3d 91 d2 3d bc 08 8e 8e bb b9 e1 4a be
       0.033735085 -0.0115858475 -0.0043504275 -0.19812669
000070 e1 2f 97 3e fa 39 b6 be db d8 75 3e 84 5d 51 3c
       0.29528716 -0.35591108 0.24008505 0.0127786435
000080 57 e2 c4 bd 80 74 11 2a 6b 5a 82 3e 02 1d 83 3d
       -0.096134834 1.2919006e-13 0.25459608 0.06402017

encoder.6.bias f4 [3]
000000 42 77 96 3f 0c 55 b6 bf b0 0f ed 3e
       1.1755145 -1.4244704 0.4630103

decoder.0.weight f4 [12, 3]
000000 0d 7a f0 3d ac 9a 33 3e 21 88 d6 be 9f 26 39 3f
       0.11742029 0.17539471 -0.41900733 0.72324556
000010 fa 74 e0 be b4 79 10 3e 45 78 15 3e c7 6c 15 be
       -0.43839246 0.14108926 0.1459666 -0.14592277
000020 b2 42 80 3d 56 0d c1 bc 70 5f 31 be ce 29 cd 3e
       0.06262721 -0.02356593 -0.17321563 0.40070957
000030 ab c8 28 3e 64 86 ac 3e ab b1 09 3e ab f3 ae be
       0.16482799 0.33696282 0.13446681 -0.3417028
000040 6d 38 51 3e b1 6b 00 bd ca 40 68 3e a7 8e 6a be
       0.20431681 -0.031352703 0.22680965 -0.2290598
000050 c6 75 5f 3d 39 e3 9a 3e 14 9a 81 be 0e bc 12 3a
       0.054555677 0.30251482 -0.25312865 0.00055974803
000060 b5 f3 ad 3e 86 c1 80 be cc 83 1e 3e 4f 45 7d be
       0.33974996 -0.25147647 0.15479964 -0.2473347
000070 02 15 b5 be b0 1f fd bd 8c 5a 99 3e af 59 30 be
       -0.3536759 -0.123595595 0.29951894 -0.17221712
000080 84 e9 7b 3c e2 05 fc 3e 46 3d 16 bf 89 2a d9 bd
       0.015375499 0.49223238 -0.58687246 -0.10603816

decoder.0.bias f4 [12]
000000 22 66 ee 3d 15 ed 32 3f 36 99 74 bf bd 36 1f 3e
       0.11640574 0.6989301 -0.9554628 0.15548225
000010 6b 9a 99 be 48 8b d6 be e7 52 85 bf 37 d2 6d bf
       -0.30000624 -0.41903138 -1.0415925 -0.9289889
000020 8e 4f 2f bf d0 e8 ad 3e 9b 05 4e bf 57 79 2b bf
       -0.68480766 0.33966684 -0.80477303 -0.66982025

decoder.2.weight f4 [64, 12]
000000 93 01 6a bf 94 81 90 3e 6a 9f c1 3d 16 32 6a bc
       -0.9140865 0.2822386 0.09454234 -0.014294168
000010 46 8f f7 bd a7 a1 3a bf 2d fb aa 3b d7 71 46 be
       -0.12087874 -0.7290291 0.005217931 -0.19379364
000020 ca 7f b9 3c 40 f4 9d 3e dc 01 2e be 65 84 09 bd
       0.022643942 0.3085041 -0.16992897 -0.033573527
000030 a1 51 0b 80 0b fc 14 80 42 d4 43 82 a3 af 0c b4
       -1.039473e-39 -1.927126e-39 -1.4387252e-37 -1.3102412e-07
000040 22 49 bf 8b e5 96 72 b4 2c d8 c0 01 e6 dd 16 80
       -7.368056e-32 -2.2592901e-07 7.083985e-38 -2.099983e-39
000050 91 a9 48 82 58 6d b5 b0 5d d0 1c 82 08 cc 28 00
       -1.4742343e-37 -1.3200561e-09 -1.1520867e-37 3.746612e-39
000060 ea 97 41 b1 03 eb 19 80 14 35 61 81 c1 18 23 00
       -2.817155e-09 -2.380194e-39 -4.1364055e-38 3.223122e-39
000070 b6 2c 97 a7 c5 71 f2 b2 5a 90 3c 00 e3 86 13 00
       -4.1959395e-15 -2.8224244e-08 5.561913e-39 1.793263e-39
000080 24 5e 2d 80 21 07 3a aa 72 78 09 80 0b 97 10 80
       -4.166369e-39 -1.6522592e-13 -8.69727e-40 -1.523552e-39
000090 37 d7 21 3f 77 59 26 3e 5c da 5a 3e 2e f1 1d 99
       0.63219017 0.16245066 0.2137236 -8.165416e-24
0000a0 48 87 05 3e b7 74 19 be cf b4 d5 bd 00 c3 1f bd
       0.13039887 -0.1498593 -0.10434877 -0.039004326
0000b0 17 01 2a 3d 85 ca 67 be 05 bb 23 be 88 f4 a9 be
       0.041504946 -0.22635849 -0.15989311 -0.33194375
0000c0 e0 b5 92 bd ba 95 b9 a0 7f 3f 18 80 b7 3a 96 bc
       -0.07163596 -3.14393e-19 -2.22683e-39 -0.018338544
0000d0 6c 4a 7e bd fa 23 32 be 31 17 0b 00 d2 39 1c 00
       -0.062082693 -0.17396536 1.01851e-39 2.592136e-39
0000e0 53 ef 37 00 56 0d be bc c0 01 25 80 25 fa 1d 00
       5.136806e-39 -0.023199718 -3.398541e-39 2.752964e-39
0000f0 07 18 a9 be b0 2b 6a bd 7e 0d 09 0e 8d 40 54 be
       -0.33026144 -0.05717057 1.689305e-30 -0.20727749
000100 37 a8 d3 bd 71 dd 1b bf 60 11 05 85 ae 1d f9 b8
       -0.10334819 -0.6088477 -6.256821e-36 -0.000118787735
000110 6c 1d 20 80 c0 bc 29 be e4 3d 43 07 f2 46 07 bd
       -2.94929e-39 -0.16575909 1.4688358e-34 -0.033026643
000120 98 90 2d b8 6e da 33 80 e9 6f 36 00 4b 3d 94 bb
       -4.1381078e-05 -4.761968e-39 4.999263e-39 -0.0045239083
000130 d1 1f 49 b8 e1 8d 8f bb 50 2c 0c 80 fc 63 2f 00
       -4.7951766e-05 -0.004380927 -1.117922e-39 4.352136e-39
000140 6b 76 17 00 85 9d 8a bb 5c fe 11 00 0b 47 28 00
       2.154697e-39 -0.0042302036 1.65245e-39 3.698905e-39
000150 f6 42 4a ba b5 e6 0e 00 94 40 11 01 92 8a af b0
       -0.00077156664 1.368459e-39 2.6678626e-38 -1.277231e-09
000160 ca 76 1c b5 50 07 33 bb c1 cb 0b 00 31 84 33 00
       -5.828739e-07 -0.002731759 1.083284e-39 4.731032e-39
000170 4e 2d 20 00 fe 14 99 ba 24 2b 21 00 c1 c3 24 00
       2.954988e-39 -0.001167923 3.046047e-39 3.376301e-39
000180 81 7b 5f bb da 9a c6 a8 80 38 1a 00 db aa 05 ab
       -0.0034100714 -2.2049572e-14 2.407991e-39 -4.74882e-13
000190 6f c8 a6 b6 91 1a 46 b2 5c 76 0f 80 01 ee 08 00
       -4.970519e-06 -1.1531157e-08 -1.419992e-39 8.20064e-40
0001a0 a0 f9 01 80 e4 6d d2 b9 5c 69 26 00 df ee 8c b2
       -1.81384e-40 -0.00040136196 3.527545e-39 -1.6406771e-08
0001b0 cf f5 c2 bd 00 65 af 3d 52 7e 5e bd d6 4a 14 3f
       -0.095195405 0.08564186 -0.054319687 0.5792669
0001c0 53 e7 4e bf e5 db df be 0c f8 71 3d 4e ef a9 3d
       -0.8082172 -0.43722454 0.059074447 0.08297597
0001d0 a3 33 e4 bd d0 dd a5 be d7 49 54 3d e8 83 63 3e
       -0.111426614 -0.32395792 0.05182823 0.22218287
0001e0 e0 8c e9 ba 85 8c ec a3 8a a6 94 81 90 45 5d ba
       -0.0017818473 -2.5646684e-17 -5.4605586e-38 -0.00084408466
0001f0 72 f8 39 bd 2f c7 da bd 98 95 dc 80 11 40 00 80
       -0.04540295 -0.106825225 -2.0257473e-38 -2.2983e-41
000200 0e 21 9a 81 32 a5 5a ba f2 f0 3d 80 50 2f 38 86
       -5.6618097e-38 -0.0008340656 -5.6884e-39 -3.4641313e-35
000210 ed 7c d5 ba 4d 98 0a 00 ae dd 09 00 b2 93 6f ad
       -0.0016287841 9.7299e-40 9.06043e-40 -1.3618372e-11
000220 db a8 12 b9 ff e4 83 bb d2 91 5b 81 e5 c3 01 80
       -0.00013986549 -0.004025101 -4.0328568e-38 -1.62109e-40
000230 df 9d 2d 00 85 de 13 bc cc 79 0b 01 53 9d 0c 00
       4.189231e-39 -0.009025221 2.5617653e-38 1.158463e-39
000240 71 66 97 bd 56 d7 7f af 68 40 15 00 29 89 b4 bb
       -0.07392586 -2.3268618e-10 1.95165e-39 -0.005509515
000250 e8 7c ba b2 6e 42 57 be da 29 cb 00 58 a3 31 b1
       -2.171005e-08 -0.21021435 1.8657619e-38 -2.584974e-09
000260 78 4f 06 a9 e8 3e 1c bd 20 32 64 a5 ac 32 11 3c
       -2.9822905e-14 -0.03814593 -1.979283e-16 0.008862179
000270 56 be 1f bf 8c c1 61 3e 22 ed 6d b8 23 2b 74 be
       -0.62399805 0.22046489 -5.672605e-05 -0.2384458
000280 5e 72 f1 3e 0f 6a 9f bd 9a fa cd bd 75 51 2b 3e
       0.47157568 -0.07783901 -0.10057564 0.16730292
000290 c1 2b 50 3e ea e4 14 80 d8 a3 82 3e ab 1e 01 3d
       0.20329191 -1.918829e-39 0.25515628 0.031523388
0002a0 cc d4 8c 3e af d6 5f 3e a4 53 3d 3e a5 5a 8f 3e
       0.275061 0.21859239 0.18488938 0.27998844
0002b0 c1 00 c9 bd c8 3f 58 bf 83 8b 94 bc ee 20 57 bd
       -0.09814597 -0.8447232 -0.01813293 -0.05252164
0002c0 d0 aa 81 bd 86 f0 ad bf ed 84 22 3c f5 46 35 bd
       -0.06331408 -1.3589027 0.009919387 -0.044257123
0002d0 8e cb 8d 96 21 27 c5 b6 7d b3 1b 00 ba 66 99 b7
       -2.290824e-25 -5.8756127e-06 2.543947e-39 -1.8286857e-05
0002e0 f1 e9 91 8e 4d 33 9e b1 c6 47 2a 00 40 3c 2a 80
       -3.5970537e-30 -4.6042374e-09 3.882838e-39 -3.878704e-39
0002f0 9b 23 28 80 91 55 d2 9f aa d6 0b 00 47 5b de b0
       -3.686193e-39 -8.908002e-20 1.087197e-39 -1.6178568e-09
000300 69 1c 37 b5 03 df 1c 80 c3 f5 0a 80 0a c1 cf 07
       -6.8214155e-07 -2.651395e-39 -1.006518e-39 3.1259356e-34
000310 c9 bb 95 b8 e5 97 b2 b3 00 47 2f 80 c9 07 09 00
       -7.1398514e-05 -8.3164004e-08 -4.341738e-39 8.29312e-40
000320 87 bf 38 00 5a d8 46 a2 cf f4 1f 00 61 a0 18 00
       5.211495e-39 -2.694854e-18 2.934721e-39 2.261585e-39
000330 16 d0 92 bb 2f 41 46 b6 45 ec 0b 00 3d a7 0f b9
       -0.004480372 -2.954224e-06 1.094948e-39 -0.00013699844
000340 36 cb 9b 38 1d 30 14 bb d3 a0 05 80 ae 1a 16 30
       7.428827e-05 -0.0022611686 -5.1687e-40 5.4607596e-10
000350 7f b1 63 32 40 8b 43 b6 00 62 0c 80 2f 89 04 35
       1.3253497e-08 -2.9138318e-06 -1.137182e-39 4.937346e-07
000360 ed 76 0c a1 d6 cb 05 80 06 47 0f 00 5e 83 9b b6
       -4.759124e-19 -5.323e-40 1.403011e-39 -4.634653e-06
000370 0b 8c a0 aa 73 b5 b5 b8 f5 47 14 00 eb 86 01 00
       -2.8518884e-13 -8.66455e-05 1.862523e-39 1.40235e-40
000380 98 96 3d 80 6b 7d ae b9 8a 45 18 00 56 46 0a 00
       -5.655988e-39 -0.0003328131 2.228998e-39 9.43587e-40
000390 b0 92 9c be c6 d5 af b5 5a 1c 10 02 f4 75 db bd
       -0.30580664 -1.3100732e-06 1.0587586e-37 -0.10715857
0003a0 ed 65 ec bd 3c e5 62 be a1 19 13 82 cc 74 39 bd
       -0.11542878 -0.22157758 -1.080721e-37 -0.0452774
0003b0 60 8f 38 01 0b ed 96 bd a0 6a 50 80 b7 1d 10 9a
       3.389833e-38 -0.07369431 -7.38509e-39 -2.9802506e-23
0003c0 a8 c8 86 bd 4e 8b 0b 80 3c 09 40 81 5a 4f 12 b8
       -0.06581241 -1.060164e-39 -3.5271456e-38 -3.4883014e-05
0003d0 ae 30 5a bb 9f 6c 87 bd f1 62 07 80 31 50 0e 00
       -0.0033293176 -0.06612515 -6.78342e-40 1.314464e-39
0003e0 90 b0 2a 00 87 3c 77 bd f1 a4 32 80 80 a0 22 00
       3.92043e-39 -0.060360458 -4.650945e-39 3.179983e-39
0003f0 4e 35 51 3e 07 df ef be 0a 41 80 be 64 1f e9 be
       0.2043049 -0.46849844 -0.2504962 -0.45531762

decoder.2.bias f4 [64]
000000 04 fb 81 3f 96 ab b4 9c ee d3 c8 93 e5 77 df bf
       1.0154729 -1.1955755e-21 -5.0696077e-27 -1.7458464
000010 b1 c7 24 bc 4e 70 85 be 47 86 09 b4 85 00 3b b3
       -0.010057376 -0.26062244 -1.2807969e-07 -4.3539803e-08
000020 0c 86 41 b7 89 f7 a3 3f b0 65 8f ba c3 c0 37 b4
       -1.1534907e-05 1.2809917 -0.0010940339 -1.711333e-07
000030 0a ba 43 bb 78 c4 42 bf 35 2d aa 3f c4 09 07 b5
       -0.0029865527 -0.7608104 1.3295046 -5.030563e-07
000040 9e 8d c3 a6 86 62 47 b8 c1 38 92 ad 6a 9a 0c be
       -1.3569229e-15 -4.7537054e-05 -1.6623482e-11 -0.1373078
000050 10 f8 64 ba cf 69 4b 3e 09 43 e0 bd 63 1a a5 8c
       -0.0008734474 0.19864582 -0.10950286 -2.5438156e-31
000060 d4 1f 74 bf 86 c9 9d 3e 6c 26 c2 3f 40 70 f9 a1
       -0.95361066 0.30817813 1.5167975 -1.6902609e-18
000070 05 28 2b bc f4 86 96 bf bd ce 06 be 83 9d 53 3e
       -0.010446553 -1.1759934 -0.13164802 0.20665555
000080 c5 dd d7 ba de a1 50 bc ca 61 e5 bd a2 9d b1 bf
       -0.0016469291 -0.012733905 -0.112002924 -1.3876231
000090 fa 16 a2 b6 8c fb 40 b8 00 26 1f be a9 9c 23 9e
       -4.830651e-06 -4.601064e-05 -0.1554184 -8.661545e-21
0000a0 23 f1 0d 3f 83 d0 89 89 64 95 fa bc d5 3e 98 3e
       0.5544607 -3.3177634e-33 -0.030588813 0.29735437
0000b0 0d 73 60 b0 e2 c4 cf bd 2b f1 c9 3d c2 30 12 c0
       -8.165422e-10 -0.10144974 0.09860452 -2.284226
0000c0 54 7f 49 3e 1c 02 0d b8 18 a2 54 3d 3e 31 0c bc
       0.19677478 -3.3618984e-05 0.051912397 -0.008556662
0000d0 28 b7 ab 3f f3 a4 bf b5 6c 0c 10 80 92 32 0c 92
       1.341527 -1.4278615e-06 -1.473824e-39 -4.4238543e-28
0000e0 76 55 99 b2 70 b0 08 ab 77 7b d3 bb aa c8 1a b5
       -1.7850407e-08 -4.856176e-13 -0.006453927 -5.7661475e-07
0000f0 56 23 4e 3c 33 fb 22 b6 75 29 29 9a cf a0 a2 b2
       0.012581667 -2.4286098e-06 -3.498187e-23 -1.893241e-08

decoder.4.weight f4 [128, 64]
000000 b3 db 90 3e c0 6e 68 94 a5 fd 1d 00 6d b1 be be
       0.28292617 -1.1734848e-26 2.75422e-39 -0.3724474
000010 d2 99 01 33 f9 53 fe bb 56 32 38 25 c1 83 32 00
       3.0175052e-08 -0.007761475 1.597651e-16 4.639039e-39
000020 52 d3 ca 95 94 ba be 3e ea 5f 16 00 85 9b 0d 80
       -8.1920555e-26 0.37251723 2.054788e-39 -1.249651e-39
000030 10 e6 9d b9 4e 25 45 00 d3 4f a5 be ca e8 3f 80
       -0.00030116783 6.350032e-39 -0.32287464 -5.869145e-39
000040 79 f2 2d 80 a9 cb 88 33 97 22 33 8a ba d7 5c 36
       -4.21958e-39 6.370039e-08 -8.625042e-33 3.2908124e-06
000050 90 84 e3 8a 1a 36 53 bd f8 74 c3 bd a5 67 14 00
       -2.190917e-32 -0.051565267 -0.095437944 1.87389e-39
000060 0e fd 5b bf 66 2a b7 bd 37 92 05 bf f8 fb 33 00
       -0.85933006 -0.08943634 -0.5217623 4.774e-39
000070 2c 0e b7 b9 72 03 43 80 a6 d0 7d 3e 3e c5 e7 3e
       -0.0003491504 -6.154214e-39 0.24786624 0.4526767
000080 6f 19 3c 80 ec f3 3f bc d1 61 d7 32 a5 ea c1 be
       -5.519254e-39 -0.01171587 2.5073776e-08 -0.37874332
000090 7b 4f 26 93 65 33 3b 29 a5 29 28 bd e5 35 11 00
       -2.0991333e-27 4.156692e-14 -0.04105534 1.580537e-39
0000a0 af ae 09 3e 47 0d 22 86 10 47 75 ae 0c e1 04 bf
       0.13445543 -3.0478568e-35 -5.5769667e-11 -0.51905894
0000b0 e4 2c 0e 2c 3a 20 3e b1 87 34 0f 3d a1 6d d7 b9
       2.0204333e-12 -2.7666958e-09 0.034962203 -0.00041089676
0000c0 68 b9 8b bc ec 97 b8 26 62 48 ff be a2 93 32 80
       -0.017056182 1.2808743e-15 -0.4985991 -4.644735e-39
0000d0 5b 48 cf be 3d ee 32 80 75 bb 04 80 05 f1 1a 80
       -0.4048489 -4.677239e-39 -4.34589e-40 -2.474184e-39
0000e0 47 c2 2d a2 c4 87 39 80 96 94 fb b4 57 83 13 80
       -2.3548722e-18 -5.283327e-39 -4.6860504e-07 -1.79199e-39
0000f0 de 54 89 b9 5a 38 0d 00 6f 4e 13 00 b3 f6 05 80
       -0.00026193907 1.214077e-39 1.773011e-39 -5.47676e-40
000100 ac 55 67 ba 58 01 27 00 7d 0a 23 82 bb f6 51 b0
       -0.0008824717 3.582066e-39 -1.1978359e-37 -7.638438e-10
000110 c9 6a a4 01 10 2b 0c 00 3e de 07 02 c0 9b 3c 80
       6.0397315e-38 1.117474e-39 9.982014e-38 -5.566002e-39
000120 5a 09 36 00 d1 96 36 bb 9c c3 83 81 a0 c7 18 81
       4.962472e-39 -0.002786089 -4.8402486e-38 -2.8061215e-38
000130 28 0d e0 00 a8 e6 ee 2a 1b d4 4d 39 5a 9b 2c 80
       2.0575871e-38 4.2437343e-13 0.00019629339 -4.096491e-39
000140 e2 f6 ac 02 65 e5 2f 80 cc b0 26 00 fe ed aa ba
       2.5414832e-37 -4.39856e-39 3.553172e-39 -0.0013040898
000150 38 c5 3a 00 ee fc a4 b8 7b 55 36 b9 95 bf 03 82
       5.397208e-39 -7.867241e-05 -0.00017388717 -9.679341e-38
000160 59 d3 cd b6 01 04 25 ae 43 ed 64 af 34 30 2f 00
       -6.13408e-06 -3.7520213e-11 -2.0820771e-10 4.33356e-39
000170 b9 e8 24 02 ea cf 1c 80 85 0e 04 00 59 5e 19 b7
       1.2115605e-37 -2.64598e-39 3.7255e-40 -9.141478e-06
000180 95 9a 28 00 ec ee 20 00 30 97 41 80 72 ca 03 bb
       3.728873e-39 3.024445e-39 -6.023543e-39 -0.002010968
000190 65 18 13 00 c1 32 1e 01 da c0 a1 01 46 91 27 00
       1.753626e-39 2.905643e-38 5.941879e-38 3.633699e-39
0001a0 54 ca d5 b9 1e 0c 35 80 c0 be 02 00 6b 6b 44 31
       -0.00040777272 -4.871628e-39 2.52099e-40 2.8582814e-09
0001b0 70 7c 3f 00 b2 0f b8 81 21 f2 a8 32 15 85 a6 36
       5.830276e-39 -6.7613447e-38 1.9667882e-08 4.9626783e-06
0001c0 8a 37 2a 80 f2 ce 0d 82 36 b5 04 b7 c0 6c b7 01
       -3.877015e-39 -1.0418434e-37 -7.910005e-06 6.737963e-38
0001d0 56 4f 0c 37 08 d2 51 80 c3 7e 0f 80 b8 af 44 00
       8.363122e-06 -7.51402e-39 -1.423006e-39 6.30785e-39
0001e0 c1 c4 a7 81 0b 1f 24 00 be 6e 95 01 20 0f f4 80
       -6.162844e-38 3.317214e-39 5.4892863e-38 -2.2413287e-38
0001f0 81 70 2d 80 84 b6 29 80 fd cf bf 81 19 f1 04 80
       -4.172956e-39 -3.83073e-39 -7.046077e-38 -4.53832e-40
000200 70 67 8d 3e 70 9c 1e 80 a2 94 0e 00 53 c0 6a bd
       0.2761798 -2.811184e-39 1.339016e-39 -0.05731232
000210 6b 8d a7 b5 60 0e b6 bb 42 a0 0e 34 09 fa 6b b4
       -1.2483628e-06 -0.005555913 1.3283082e-07 -2.1977043e-07
000220 96 ac 10 80 ec 62 f6 be d6 20 d8 37 a9 d7 38 af
       -1.53128e-39 -0.48122346 2.5764497e-05 -1.681132e-10
000230 9d 9e 7d 3b 63 71 87 b5 dc c2 3e bc fd 28 15 00
       0.0038699277 -1.0091284e-06 -0.011643138 1.943249e-39
000240 3a 45 52 80 f6 24 44 8b 8f e9 27 00 69 21 a0 38
       -7.555344e-39 -3.7776033e-32 3.66537e-39 7.635618e-05
000250 0a 9a 39 bb 2e 40 9f bd 75 16 cd 3e 83 27 85 06
       -0.0028320574 -0.07775913 0.40056196 5.0087097e-35
000260 a9 94 cb 3e c6 dc 25 b9 30 eb f2 3d 9b 15 0f 00
       0.39761856 -0.00015817871 0.11861265 1.385283e-39
000270 d4 06 58 37 0d 0a 0d 80 81 4f 7f 3b fd cd c3 be
       1.2876193e-05 -1.197467e-39 0.00389573 -0.38243094
000280 85 db ef 34 3d 25 27 00 cf 36 11 bb 02 f9 35 3e
       4.467694e-07 3.594943e-39 -0.0022157913 0.1777077
000290 4b 35 e3 9f 9d eb 55 b5 98 ab 74 3d 41 7a 27 0b
       -9.6226405e-20 -7.9691546e-07 0.059733957 3.2255004e-32
0002a0 b9 93 47 be ff 62 07 00 ee 99 40 3a 5f 6a af be
       -0.19489945 6.78362e-40 0.0007347156 -0.34260842
0002b0 c8 93 26 00 26 c8 94 91 05 ea 10 80 73 c4 4f be
       3.542763e-39 -2.3473634e-28 -1.553318e-39 -0.20289783
0002c0 33 38 ef aa c3 3a a1 b5 4c 32 33 bd 22 ff 9e a6
       -4.2493925e-13 -1.2012537e-06 -0.04374914 -1.1032606e-15
0002d0 c5 39 5e bb 8e e4 1c 00 f9 52 10 00 4c fe 17 00
       -0.0033908945 2.653384e-39 1.499133e-39 2.203441e-39
0002e0 ec 16 02 80 4d f6 05 0f f4 9a 7f 37 f0 e3 c3 2e
       -1.91894e-40 6.604842e-30 1.5235262e-05 8.908063e-11
0002f0 8f 73 03 00 9a 47 63 15 69 04 06 80 86 50 11 80
       3.16961e-40 4.589877e-26 -5.52595e-40 -1.59009e-39
000300 72 6d 39 be e0 ff 42 00 ed 5c 1c 80 27 3b 66 3c
       -0.18108156 6.152933e-39 -2.60473e-39 0.014052189
000310 57 d2 92 37 bd b2 2f 3e 63 45 da 23 1c 98 3f a9
       1.7502503e-05 0.17158027 2.3664994e-17 -4.2542453e-14
000320 ff a1 54 30 b0 56 73 bd 2b a7 8c 3a cc 6d 14 00
       7.735536e-10 -0.059408844 0.0010730972 1.876098e-39
000330 66 56 8c 3c 62 60 94 bc 09 78 c4 3e d6 57 24 00
       0.017131042 -0.018112365 0.3837283 3.337587e-39
000340 25 b3 07 00 ee e5 80 02 29 86 24 80 ee 0b b3 bb
       7.07113e-40 1.8939883e-37 -3.354205e-39 -0.0054640686
000350 cf 2b 85 3b 93 73 ca 3e 80 96 9d 3e 1e f5 85 22
       0.0040640603 0.395413 0.30778885 3.630925e-18
000360 a4 0c 60 bf 66 6f 8b be d4 ad ab 3c 51 2e 27 a1
       -0.8751929 -0.27233428 0.020956911 -5.66431e-19
000370 8a c3 81 89 f0 67 2e 00 60 1a 56 bd 8b 6e b1 3e
       -3.1239504e-33 4.261719e-39 -0.052271247 0.3465465
000380 aa ab 88 35 ce 2f 08 aa 36 e2 b0 bc 7f 13 72 bd
       1.018275e-06 -1.2095812e-13 -0.02159224 -0.059100624
000390 85 e5 b0 9e 13 81 e7 b7 9b 40 a3 3e 4a 77 21 a3
       -1.8729652e-20 -2.759745e-05 0.31885228 -8.753088e-18
0003a0 90 60 de 3e 4f fe 0e 80 44 26 4a bd c4 66 ab be
       0.43433046 -1.376926e-39 -0.0493529 -0.3347684
0003b0 14 a3 cc ad e7 a4 9d bc 61 90 91 bd e0 2b 18 bf
       -2.3264536e-11 -0.01924367 -0.07107616 -0.5944195
0003c0 53 99 07 bd 62 21 b2 af b6 14 08 be 52 13 a6 ba
       -0.033105206 -3.240173e-10 -0.1328915 -0.0012670553
0003d0 2e cd 87 be e3 7d 1d 00 e6 72 2f 00 0e 95 0d 80
       -0.26523727 2.708389e-39 4.357486e-39 -1.247332e-39
0003e0 f6 66 33 35 34 0d 40 9e e8 7f 11 39 1d 1d ec 35
       6.6832524e-07 -1.0167126e-20 0.00013875926 1.7591843e-06
0003f0 f6 d3 43 39 29 74 bb 02 d5 ff 10 80 3a 3e 3b a5
       0.00018675611 2.7543853e-37 -1.561143e-39 -1.6240748e-16
