lessons/lesson-7/simple-ae-weights.pt (torch_old, 882205 bytes, 16 tensors)

encoder.0.weight f4 [128, 784]
0	0x3c1e254b	0.009652446
1	0x3c1e254b	0.009652446
2	0x3c1e254b	0.009652446
3	0x3c1e254b	0.009652446
4	0x3c1e254b	0.009652446
5	0x3c1e254b	0.009652446
6	0x3c1e254b	0.009652446
7	0x3c1e254b	0.009652446
8	0x3c1e254b	0.009652446
9	0x3c1e254b	0.009652446
10	0x3c1e254b	0.009652446
11	0x3c1e254b	0.009652446
12	0x3c1e254b	0.009652446
13	0x3c1e254b	0.009652446
14	0x3c1e254b	0.009652446
15	0x3c1e254b	0.009652446
16	0x3c1e254b	0.009652446
17	0x3c1e254b	0.009652446
18	0x3c1e254b	0.009652446
19	0x3c1e254b	0.009652446
20	0x3c1e254b	0.009652446
21	0x3c1e254b	0.009652446
22	0x3c1e254b	0.009652446
23	0x3c1e254b	0.009652446
24	0x3c1e254b	0.009652446
25	0x3c1e254b	0.009652446
26	0x3c1e254b	0.009652446
27	0x3c1e254b	0.009652446
28	0x3c1e254b	0.009652446
29	0x3c1e254b	0.009652446
30	0x3c1e254b	0.009652446
31	0x3c1e254b	0.009652446
32	0x3c1e254b	0.009652446
33	0x3c1e254b	0.009652446
34	0x3c1e254b	0.009652446
35	0x3c1e254b	0.009652446
36	0x3c1e254b	0.009652446
37	0x3c1e2522	0.009652408
38	0x3c1e244b	0.009652208
39	0x3c1e2539	0.009652429
40	0x3c1e254b	0.009652446
41	0x3c1e254b	0.009652446
42	0x3c22e55b	0.009942378
43	0x3c818d25	0.015814373
44	0x3ca90eaf	0.020636884
45	0x3c1e254b	0.009652446
46	0x3c1e254b	0.009652446
47	0x3c1e254b	0.009652446
48	0x3c1e254b	0.009652446
49	0x3c1e254b	0.009652446
50	0x3c1e254b	0.009652446
51	0x3c1e254b	0.009652446
52	0x3c1e254b	0.009652446
53	0x3c1e254b	0.009652446
54	0x3c1e254b	0.009652446
55	0x3c1e254b	0.009652446
56	0x3c1e254b	0.009652446
57	0x3c1e254b	0.009652446
58	0x3c1e254b	0.009652446
59	0x3c1e254b	0.009652446
60	0x3c1e254b	0.009652446
61	0x3c1e254b	0.009652446
62	0x3c1e254b	0.009652446
63	0x3c1e254b	0.009652446
64	0x3c1e29f2	0.009653555
65	0x3c1e26d9	0.009652817
66	0x3c1e11d6	0.009647807
67	0x3c1df43f	0.009640752
68	0x3c1df63b	0.009641225
69	0x3c1e0c71	0.009646521
70	0x3c84af69	0.016196923
71	0x3cf2a0bf	0.029617665
72	0x3ce7fc80	0.028318644
73	0x3c21d90b	0.009878407
74	0x3c6ed9d0	0.014578298
75	0x3c5d35bf	0.013501584
76	0x3c1dfd03	0.009642842
77	0x3c1e0dd8	0.009646855
78	0x3c1e22d8	0.009651862
79	0x3c1e254b	0.009652446
80	0x3c1e254b	0.009652446
81	0x3c1e254b	0.009652446
82	0x3c1e254b	0.009652446
83	0x3c1e254b	0.009652446
84	0x3c1e254b	0.009652446
85	0x3c1e254b	0.009652446
86	0x3c1e254b	0.009652446
87	0x3c1e254b	0.009652446
88	0x3c1e254b	0.009652446
89	0x3c1e254b	0.009652446
90	0x3c1e2549	0.009652444
91	0x3c1e2549	0.009652444
92	0x3c1e2dc8	0.00965447
93	0x3c1e278f	0.009652986
94	0x3c0d89e2	0.008638831
95	0x3bc756c2	0.0060833404
96	0x3bbdc377	0.0057911235
97	0x3bbd2715	0.005772481
98	0x3cc711d5	0.024300495
99	0x3ce786b8	0.028262481
100	0x3ce5f883	0.028072601
101	0x3c3dcb9f	0.011584192
102	0x3c7a9eff	0.015296697
103	0x3c5ab738	0.013349347
104	0x3c1d40d3	0.009597975
105	0x3c1dcc63	0.009631249
106	0x3c1dc994	0.0096305795
107	0x3c1e07de	0.00964543
108	0x3c1e254b	0.009652446
109	0x3c1e254b	0.009652446
110	0x3c1e254b	0.009652446
111	0x3c1e254b	0.009652446
112	0x3c1e254b	0.009652446
113	0x3c1e254b	0.009652446
114	0x3c1e254b	0.009652446
115	0x3c1e254b	0.009652446
116	0x3c1e254b	0.009652446
117	0x3c1e254b	0.009652446
118	0x3c1e2553	0.0096524535
119	0x3c1e256a	0.009652475
120	0x3bd71181	0.006563366
121	0x3bd1042a	0.00637867
122	0x3b3b5fa6	0.0028590946
123	0xba48148d	-0.0007632457
124	0x3aa2132e	0.0012365335
125	0x3c2b25c4	0.010446016
126	0x3cecb774	0.028896071
127	0x3d12ec91	0.03587014
128	0x3c85c733	0.016330337
129	0x3c1c03d4	0.009522397
130	0x3b9bce34	0.004754806
131	0x3b147c00	0.0022656918
132	0x3af44149	0.0018635179
133	0x3b854723	0.004067318
134	0x3c1da1d2	0.0096211005
135	0x3c1dce41	0.009631694
136	0x3c1e254b	0.009652446
137	0x3c1e254d	0.009652448
138	0x3c1e254b	0.009652446
139	0x3c1e254b	0.009652446
140	0x3c1e254b	0.009652446
141	0x3c1e254b	0.009652446
142	0x3c1e254b	0.009652446
143	0x3c1e254b	0.009652446
144	0x3c1e253f	0.009652435
145	0x3c1e2545	0.00965244
146	0x3c1af321	0.0094573805
147	0x3b85ab0f	0.0040792297
148	0x3b931a53	0.004489222
149	0x3b9def14	0.00481976
150	0x3b056834	0.00203563
151	0xba42c208	-0.00074294256
152	0xb8e97848	-0.0001113271
153	0x3bb8ae21	0.005635992
154	0x3bedcbfc	0.007256983
155	0x3b0739de	0.0020633857
156	0x363ea568	2.8408485e-06
157	0xbaa866a7	-0.0012847976
158	0xbc35bbcc	-0.011092138
159	0xbb929d41	-0.0044743125
160	0x39d763ce	0.00041082356
161	0x3c09ace9	0.008403041
162	0x3c27ee32	0.010249661
163	0x3c26a46d	0.010171038
164	0x3c26dc23	0.010184321
165	0x3c1e2521	0.009652407
166	0x3c1e254b	0.009652446
167	0x3c1e254b	0.009652446
168	0x3c1e254b	0.009652446
169	0x3c1e254b	0.009652446
170	0x3c1e254b	0.009652446
171	0x3c1e254b	0.009652446
172	0x3c177357	0.009243808
173	0x3c471208	0.012150295
174	0x3c09decd	0.008414936
175	0x3aee732d	0.0018192284
176	0xbaa1d805	-0.0012347704
177	0xbba0d17b	-0.0049077845
178	0xbc2fe5a1	-0.0107359
179	0xbbc0a50c	-0.00587905
180	0xbb4803f8	-0.0030519944
181	0xbabd5252	-0.0014444089
182	0xbaa7bdf4	-0.0012797699
183	0xb9f84a86	-0.0004735777
184	0xb4392486	-1.7242755e-07
185	0xbbc5d927	-0.0060378495
186	0xbcd776f9	-0.026301848
187	0xbc7a87f2	-0.015291201
188	0xbb3e531b	-0.0029041234
189	0x3c47a213	0.012184638
190	0x3c2e895e	0.010652868
191	0x3c1c7775	0.009549965
192	0x3c1bac1f	0.009501486
193	0x3c18dfc3	0.009330693
194	0x3c1e254b	0.009652446
195	0x3c1e254b	0.009652446
196	0x3c1e254b	0.009652446
197	0x3c1e254b	0.009652446
198	0x3c1e254b	0.009652446
199	0x3c1e254b	0.009652446
200	0x3c0d1e6d	0.008613211
201	0x3c21fff2	0.009887682
202	0x3c1705fb	0.009217734
203	0xbb9db41e	-0.0048127314
204	0xbcc46290	-0.02397278
205	0xbc8a3f78	-0.016875967
206	0xbc12b4e2	-0.008954259
207	0xba9d946b	-0.0012022381
208	0x3ae2f1db	0.001731451
209	0xb9c5f529	-0.00037757427
210	0xbade8700	-0.0016977489
211	0xbc1ae681	-0.0094543705
212	0xbc48cb88	-0.012255557
213	0xba3fb06c	-0.00073123607
214	0xbc2150b8	-0.009845905
215	0xbc7ba723	-0.015359673
216	0xbbab1916	-0.0052214963
217	0x3b384174	0.0028115185
218	0x3c031102	0.00799966
219	0x3c145915	0.009054442
220	0x3c1097e7	0.008825279
221	0x3c128380	0.008942485
222	0x3c1e254b	0.009652446
223	0x3c1e254b	0.009652446
224	0x3c1e254b	0.009652446
225	0x3c1e254b	0.009652446
226	0x3c1e2512	0.009652393
227	0x3c1e17b9	0.009649211
228	0x3c31125d	0.010807601
229	0x3c0ef59e	0.008725552
230	0xbacb4be6	-0.001551029
231	0xbbbf4f9a	-0.0058383467
232	0xbc52bda5	-0.012862598
233	0xbc78ab5f	-0.015177577
234	0xba1ec1de	-0.000605611
235	0x39832bdf	0.00025018954
236	0x39b782de	0.00035001984
237	0x3b818181	0.0039522056
238	0x399a094c	0.00029380096
239	0xbc056a88	-0.008143075
240	0xbb6ae70d	-0.0035843283
241	0xb968192e	-0.00022134624
242	0xbb90435e	-0.004402562
243	0xbc87a3cf	-0.016557602
244	0xbbec152a	-0.0072046714
245	0xbbe836a3	-0.0070865913
246	0xba914080	-0.0011081845
247	0x3c138771	0.00900446
248	0x3c19ac87	0.009379513
249	0x3c1d2e4c	0.009593558
250	0x3c1e2539	0.009652429
251	0x3c1e254b	0.009652446
252	0x3c1e254b	0.009652446
253	0x3c1e254b	0.009652446
254	0x3c1e2520	0.009652406
255	0x3c1e162c	0.009648841

encoder.0.bias f4 [128]
0	0xbc1e254d	-0.009652448
1	0xbd0f9d90	-0.035062373
2	0xbdbfbd2b	-0.09362253
3	0xb9c50384	-0.00037577387
4	0xbbc83686	-0.0061100153
5	0xb9a04219	-0.00030566825
6	0xb6b44c86	-5.3733265e-06
7	0xbda1d68e	-0.07902251
8	0xbd32c6b6	-0.043646537
9	0xaf0122c8	-1.1744838e-10
10	0xbda6f36a	-0.08151896
11	0xbd95438a	-0.07288273
12	0xb513c570	-5.5049077e-07
13	0xb951f2af	-0.000200222
14	0xb25dbd16	-1.2906886e-08
15	0xb1be458c	-5.5376344e-09
16	0xad21a9ae	-9.189467e-12
17	0xbac2edc7	-0.0014871889
18	0xba92af72	-0.0011191203
19	0x3df3d215	0.11905304
20	0xae8368db	-5.9758164e-11
21	0xba1cff70	-0.0005988991
22	0xa7000058	-1.7763755e-15
23	0xb11f9fe6	-2.3228437e-09
24	0x3e0d6690	0.13808656
25	0xb2e10b3c	-2.6198556e-08
26	0x94207cba	-8.102534e-27
27	0xb1218d90	-2.3509052e-09
28	0xacd07b0f	-5.925378e-12
29	0x9ca22b89	-1.0731514e-21
30	0xb8ce4ac9	-9.836775e-05
31	0xbb2a142c	-0.0025951965
32	0xba9e1488	-0.0012060562
33	0xbc45a175	-0.01206242
34	0xbde8df25	-0.113706864
35	0xaf120d27	-1.3283295e-10
36	0xb8ff0621	-0.00012160489
37	0xb91c98c2	-0.00014934226
38	0xbc4e1cdf	-0.012580126
39	0xb6494f44	-2.9997473e-06
40	0xbbe2022e	-0.0068972325
41	0xaa4c0a71	-1.8122462e-13
42	0xbaa96227	-0.0012922928
43	0x3d88dccd	0.066827394
44	0xb06b9d31	-8.5715884e-10
45	0xb33719c7	-4.2631452e-08
46	0xbe0ec977	-0.1394404
47	0xbde4e67f	-0.11176776
48	0xb5c047de	-1.4326031e-06
49	0xb2f95f77	-2.9030828e-08
50	0xb667850a	-3.4499121e-06
51	0xbbbe07c4	-0.0057992656
52	0xb60e06e8	-2.1163669e-06
53	0xbe765ae4	-0.2405811
54	0xbddfeeb8	-0.10934204
55	0x9fb22877	-7.5452876e-20
56	0xbe18d1d9	-0.149238
57	0xba0a0605	-0.0005265179
58	0xb6b807f4	-5.484553e-06
59	0xb91e4ee9	-0.0001509745
60	0xb27d6e70	-1.4751649e-08
61	0xbb345505	-0.0027516496
62	0x9cc74373	-1.3186151e-21
63	0xb1284a5e	-2.448949e-09
64	0xb1b79e0c	-5.343969e-09
65	0xb4cd60c0	-3.825462e-07
66	0xa7c13c1c	-5.363343e-15
67	0xbd44ccdd	-0.048046935
68	0xb6e5aa26	-6.8445397e-06
69	0xb97a05f4	-0.00023844076
70	0xabac39af	-1.2237345e-12
71	0xaf5f3563	-2.0300699e-10
72	0xbe09a5f8	-0.13442218
73	0xba82f658	-0.0009991629
74	0xbc12c6ef	-0.008958562
75	0xbc0716e8	-0.008245207
76	0xbc56f5ca	-0.013120124
77	0xa2a85cfa	-4.5634934e-18
78	0x9f3756ab	-3.8823447e-20
79	0xb1cf39ba	-6.0310557e-09
80	0xb304dcf4	-3.09346e-08
81	0xb1f20442	-7.043611e-09
82	0xbb04ef14	-0.0020284103
83	0xb9a8e297	-0.0003221228
84	0xbc1ff13b	-0.009762104
85	0xb022da92	-5.9245864e-10
86	0xbb266bd4	-0.002539386
87	0xb8ea7282	-0.00011179318
88	0xbbcc4af1	-0.0062345196
89	0xbc876c48	-0.016531125
90	0xbb101bbd	-0.002198919
91	0xbd03eafb	-0.032206517
92	0xb9dc6136	-0.00042034098
93	0xbccf91d0	-0.025338084
94	0xbbac25d7	-0.0052535343
95	0xa59531a3	-2.5881015e-16
96	0xb24d8970	-1.196382e-08
97	0xbd12309a	-0.03569088
98	0xbc18dd5f	-0.009330123
99	0xbcce2f02	-0.0251689
100	0xbbdeae83	-0.0067957058
101	0xbd140aa0	-0.036142945
102	0xbe169478	-0.14705074
103	0xb0a3c802	-1.1916657e-09
104	0xb51ba614	-5.7983675e-07
105	0xb40b9ba5	-1.3002007e-07
106	0xb323a369	-3.8100016e-08
107	0xbaa6a003	-0.0012712482
108	0xbc30af69	-0.010784009
109	0xba82b4b2	-0.0009972064
110	0xb909c64f	-0.00013139214
111	0xbb261ca7	-0.0025346668
112	0xac04bdd8	-1.8863713e-12
113	0xaaf255cd	-4.3047372e-13
114	0xbdc89d46	-0.097956225
115	0xb402ea3c	-1.2192407e-07
116	0xac616a7b	-3.2033532e-12
117	0xbe0b1028	-0.13580382
118	0xb963a6e4	-0.00021710579
119	0xb548d4be	-7.4815387e-07
120	0xb68abdc1	-4.1348108e-06
121	0xb997caa9	-0.00028951958
122	0xa9a302ce	-7.2391407e-14
123	0xbe1d9574	-0.15389043
124	0xb3b6a72d	-8.5054445e-08
125	0xbbf718bd	-0.007540791
126	0xb73f0603	-1.1385887e-05
127	0xa913a0de	-3.2780087e-14

encoder.2.weight f4 [64, 128]
0	0x00025177	2.12895e-40
1	0xbecf13e8	-0.40444875
2	0xbddaa022	-0.10675074
3	0x801248ed	-1.6792e-39
4	0x8041fb05	-6.059356e-39
5	0x8002b12e	-2.47231e-40
6	0x8015aef9	-1.991314e-39
7	0x00316a53	4.538081e-39
8	0xbc5e3fa7	-0.013564981
9	0x801475ca	-1.878965e-39
10	0x3cab61cc	0.020920657
11	0x802e522c	-4.25391e-39
12	0x0025944d	3.451114e-39
13	0x801cdd35	-2.650748e-39
14	0x8028a5de	-3.732922e-39
15	0x0001dc61	1.70893e-40
16	0x0005359b	4.78407e-40
17	0x800375c4	-3.17753e-40
18	0x0006fb8f	6.41255e-40
19	0xbe6d17f3	-0.23153667
20	0x8010b848	-1.535476e-39
21	0x80286f58	-3.713362e-39
22	0x0002a6f2	2.4356e-40
23	0x8000f4ea	-8.7859e-41
24	0xbefa2faa	-0.4886449
25	0x802409ae	-3.30955e-39
26	0x00343a38	4.796331e-39
27	0x8039814c	-5.281006e-39
28	0x001c2183	2.583416e-39
29	0x8026a55e	-3.549071e-39
30	0x002a81e3	3.903685e-39
31	0x00304a23	4.434699e-39
32	0x8026ace8	-3.551776e-39
33	0x00173f21	2.134863e-39
34	0x803e559a	-5.724509e-39
35	0x800a5a2d	-9.50704e-40
36	0x002e9ffc	4.281824e-39
37	0x0015795f	1.972085e-39
38	0x0001ddce	1.71404e-40
39	0x0adeb958	2.1447541e-32
40	0x001a3c30	2.409314e-39
41	0x000a005d	9.18485e-40
42	0x000af091	1.004654e-39
43	0xbe9f160e	-0.31071514
44	0x8032c61b	-4.662842e-39
45	0x8000b664	-6.543e-41
46	0xbe0785af	-0.1323459
47	0x801e9517	-2.808548e-39
48	0x00048123	4.13668e-40
49	0x0031e1b8	4.580912e-39
50	0x0012801c	1.698996e-39
51	0x003e7c9c	5.738502e-39
52	0x80179506	-2.165676e-39
53	0x3d53eea1	0.051741246
54	0x801fedea	-2.932248e-39
55	0x002c853d	4.088559e-39
56	0x8031f3e6	-4.587434e-39
57	0x000b76c7	1.0528e-39
58	0x0024caad	3.378784e-39
59	0x003ae2d1	5.407825e-39
60	0x0018be1c	2.27225e-39
61	0x0021688f	3.06808e-39
62	0x800d3cdb	-1.215692e-39
63	0x8019d654	-2.372774e-39
64	0x8040f94d	-5.966904e-39
65	0x8024c24e	-3.375781e-39
66	0x8014d49b	-1.912978e-39
67	0x80198c43	-2.346204e-39
68	0x0035d5bc	4.943955e-39
69	0x800a3d15	-9.40267e-40
70	0x001b1ba3	2.489473e-39
71	0x800feb2e	-1.461899e-39
72	0x3d5a1ffb	0.053253155
73	0x0008eb63	8.19125e-40
74	0x002af80f	3.946077e-39
75	0x000931f3	8.44438e-40
76	0x003893a3	5.19575e-39
77	0x002ee296	4.305717e-39
78	0x802addac	-3.936612e-39
79	0x0035877e	4.915887e-39
80	0x801d89a4	-2.712606e-39
81	0x000c70e6	1.142526e-39
82	0x0019c531	2.366626e-39
83	0x80189135	-2.256142e-39
84	0x8013a064	-1.802412e-39
85	0x00163ef9	2.042971e-39
86	0x001ce44b	2.65329e-39
87	0x801c36a1	-2.590991e-39
88	0x80031fcd	-2.86914e-40
89	0x800b4fd0	-1.038822e-39
90	0x002a0cea	3.861724e-39
91	0x8022ce65	-3.196447e-39
92	0x86c9b561	-7.587431e-35
93	0x001bda87	2.557951e-39
94	0x801f3594	-2.86612e-39
95	0x802eb9fe	-4.291154e-39
96	0x001597fb	1.983066e-39
97	0x003b230b	5.430865e-39
98	0x00074db1	6.70719e-40
99	0x000db8b6	1.260123e-39
100	0x803c88d5	-5.559216e-39
101	0x00207a6e	2.982655e-39
102	0x001d9f91	2.720471e-39
103	0x001c6034	2.605905e-39
104	0x8008e2a8	-8.15993e-40
105	0x8021c164	-3.099947e-39
106	0x80327b5e	-4.63603e-39
107	0x801c4b18	-2.598332e-39
108	0x801c8ad8	-2.621202e-39
109	0x8031583d	-4.531593e-39
110	0x002e9584	4.278069e-39
111	0x800c1f26	-1.1132e-39
112	0x002d6d85	4.171886e-39
113	0x800d4a82	-1.22059e-39
114	0x8037e47d	-5.132918e-39
115	0x000e61eb	1.320823e-39
116	0x802a5fda	-3.891476e-39
117	0x3df6f3ca	0.12058218
118	0x8018962f	-2.257928e-39
119	0x801454db	-1.86715e-39
120	0x001b473f	2.505117e-39
121	0x803b8386	-5.465476e-39
122	0x80415b78	-6.00212e-39
123	0x910ba7cd	-1.1016874e-28
124	0x802eabf6	-4.286121e-39
125	0x86d831c2	-8.132328e-35
126	0x00405e1e	5.911235e-39
127	0x80193bf3	-2.317393e-39
128	0x80138214	-1.791538e-39
129	0xba6e53b0	-0.000909145
130	0x80085eb7	-7.68661e-40
131	0x8001bcc0	-1.59546e-40
132	0x9dbae5ba	-4.947132e-21
133	0x80002b50	-1.5538e-41
134	0x0029b306	3.829477e-39
135	0x800eb7e8	-1.35167e-39
136	0x002e5abe	4.256985e-39
137	0x00094814	8.52376e-40
138	0x800b24a2	-1.023332e-39
139	0x000c7372	1.14344e-39
140	0x00329c66	4.64788e-39
141	0x0022de70	3.202202e-39
142	0x8000a416	-5.8863e-41
143	0x00056d13	4.98306e-40
144	0x8011ec1a	-1.645901e-39
145	0x00056fb4	4.99249e-40
146	0x00325b8f	4.62462e-39
147	0xbe85ce40	-0.2613392
148	0x000b2c6a	1.026123e-39
149	0x80091a85	-8.36033e-40
150	0x000d740c	1.235491e-39
151	0x8019f3d9	-2.383363e-39
152	0xbd952060	-0.07281566
153	0x8013b11e	-1.808412e-39
154	0x803a919e	-5.378696e-39
155	0x8009cd47	-9.00159e-40
156	0x80133ae7	-1.766005e-39
157	0x80125e77	-1.686927e-39
158	0x0007b4a3	7.07649e-40
159	0x00156ab3	1.966822e-39
160	0x000015c0	7.802e-42
161	0x8022fa86	-3.212278e-39
162	0x00061704	5.5927e-40
163	0x80182a61	-2.219255e-39
164	0x800c1fc1	-1.113417e-39
165	0x0003c666	3.46678e-40
166	0x801db585	-2.728346e-39
167	0x80062d8b	-5.67351e-40
168	0x800561fb	-4.94326e-40
169	0x0007873b	6.9136e-40
170	0x803946dc	-5.260043e-39
171	0xbe84dda8	-0.2595036
172	0x80036303	-3.11025e-40
173	0x8009d49d	-9.02791e-40
174	0x00141d49	1.847215e-39
175	0x8001a868	-1.52248e-40
176	0x002493ee	3.359145e-39
177	0x0013ba48	1.8117e-39
178	0x800f1bec	-1.387549e-39
179	0x00376731	5.08797e-39
180	0x001e05e7	2.757182e-39
181	0xba7f3807	-0.0009735827
182	0x002531ee	3.415825e-39
183	0x001fbaac	2.913866e-39
184	0x0004dd17	4.46654e-40
185	0x8023ace9	-3.276271e-39
186	0x0001dbe7	1.70722e-40
187	0x8006a862	-6.11417e-40
188	0x00118ab3	1.61096e-39
189	0x001b709d	2.519956e-39
190	0x8021e6ea	-3.113408e-39
191	0x8cead470	-3.6181265e-31
192	0x00081d44	7.45182e-40
193	0x800b56df	-1.041354e-39
194	0x002ff5fc	4.404511e-39
195	0x0031f42d	4.587533e-39
196	0x00211891	3.039384e-39
197	0x00069af8	6.06605e-40
198	0x0009ae63	8.89078e-40
199	0x80073ef0	-6.65426e-40
200	0xba1d2cd6	-0.0005995756
201	0x00001cc0	1.0314e-41
202	0x00052dd0	4.75612e-40
203	0x801f4d75	-2.874687e-39
204	0x000b6620	1.046826e-39
205	0x800530b6	-4.76652e-40
206	0x00098958	8.75789e-40
207	0x8019d404	-2.371944e-39
208	0x00022c2f	1.99521e-40
209	0x8007399f	-6.63519e-40
210	0x010192e1	2.3798938e-38
211	0x8006fccb	-6.41698e-40
212	0x000a43ca	9.42673e-40
213	0x8014754c	-1.878788e-39
214	0x800dee5a	-1.279366e-39
215	0x000f3210	1.395491e-39
216	0x00153888	1.948825e-39
217	0x80092ac5	-8.41862e-40
218	0x001475fd	1.879036e-39
219	0x0014ed43	1.921823e-39
220	0x800004de	-1.746e-42
221	0x801ecd3c	-2.828689e-39
222	0x800197fa	-1.46354e-40
223	0x800aed52	-1.00349e-39
224	0x8026b656	-3.555159e-39
225	0x803b80a9	-5.464449e-39
226	0x803e1791	-5.702255e-39
227	0x000a3212	9.36317e-40
228	0x000969aa	8.64425e-40
229	0x0005bb39	5.2634e-40
230	0x0008cdb5	8.08478e-40
231	0x8002cbc7	-2.56773e-40
232	0x8003a37d	-3.34155e-40
233	0x0001112b	9.7994e-41
234	0x802e9c81	-4.280576e-39
235	0x80123fd3	-1.675935e-39
236	0x80066e6d	-5.90626e-40
237	0x000792e0	6.95537e-40
238	0x800a74ca	-9.60251e-40
239	0x00037e1a	3.20743e-40
240	0x000abb4a	9.85542e-40
241	0x800b4052	-1.033264e-39
242	0x000dd400	1.269913e-39
243	0x001a14fa	2.395248e-39
244	0x000a3c6d	9.40032e-40
245	0xbb7aed4a	-0.0038288408
246	0x0029a339	3.823809e-39
247	0x000bc7a6	1.081811e-39
248	0x800872f5	-7.75923e-40
249	0x800525af	-4.72696e-40
250	0x800e57be	-1.317173e-39
251	0x0003a59c	3.34916e-40
252	0x001f1c53	2.857061e-39
253	0x80011346	-9.875e-41
254	0x80072857	-6.5732e-40
255	0x8013df27	-1.824926e-39

encoder.2.bias f4 [64]
0	0xbeaabf9a	-0.33349305
1	0xae719227	-5.4926865e-11
2	0x9f68b4ef	-4.9277576e-20
3	0xb09c85ca	-1.1388519e-09
4	0x800f7c10	-1.422038e-39
5	0x163b3a47	1.5124129e-25
6	0xada5b795	-1.8839855e-11
7	0xb0c87477	-1.4585017e-09
8	0xb4d20724	-3.9120744e-07
9	0xb4f17c35	-4.498012e-07
10	0xabce6ef9	-1.4667981e-12
11	0xbbe3c33d	-0.0069507645
12	0xac7fa82a	-3.633103e-12
13	0xbc2b1a06	-0.010443216
14	0x19cf5213	2.1436448e-23
15	0xab9bd41a	-1.1072282e-12
16	0xb3c47f53	-9.1501214e-08
17	0x3bec2a23	0.0072071715
18	0x958563a2	-5.3875465e-26
19	0xba8e7e85	-0.0010871446
20	0xb8f7edfc	-0.00011822206
21	0x3d286f1b	0.041121583
22	0xab035e7a	-4.667166e-13
23	0x9e71bcaa	-1.27974486e-20
24	0xb5531130	-7.8628636e-07
25	0x188a8d1a	3.581464e-24
26	0xb7a74507	-1.9940095e-05
27	0xb78fad13	-1.7127522e-05
28	0xaf54dfeb	-1.936084e-10
29	0xbd7dd0dd	-0.061966766
30	0x3662f4bf	3.3819085e-06
31	0xbf50d606	-0.81576574
32	0xbb1a163a	-0.0023511783
33	0xac80d946	-3.662101e-12
34	0x9ef6419c	-2.6073399e-20
35	0x9b1bd842	-1.2891176e-22
36	0xbaa5b3eb	-0.0012642121
37	0xbe449da0	-0.19200754
38	0xa44382c9	-4.2394664e-17
39	0x3fb0aa7e	1.380203
40	0xb788ee32	-1.6323382e-05
41	0xb55b8c42	-8.178796e-07
42	0xb784aa30	-1.5814876e-05
43	0xb5ba7f91	-1.3895207e-06
44	0xb3dafd65	-1.0197508e-07
45	0xbf07ed30	-0.53096294
46	0xbba2ed12	-0.0049721086
47	0xbe7d9208	-0.24762738
48	0xbb3d2fae	-0.002886753
49	0xa4d131ea	-9.072386e-17
50	0xaa4cd5d0	-1.8193021e-13
51	0xb4be4d40	-3.5446465e-07
52	0xaaa298e9	-2.8883084e-13
53	0xb5a3dbab	-1.2208378e-06
54	0xbb93f198	-0.004514884
55	0xb7676cd4	-1.37940115e-05
56	0x3f81080c	1.0080581
57	0xa30ed960	-7.743866e-18
58	0xbcc8b8c8	-0.024502173
59	0xa20c9522	-1.9052488e-18
60	0xbcdd8564	-0.027041145
61	0x9cfcfc92	-1.6741249e-21
62	0x9dba3fd7	-4.92998e-21
63	0xb7db6d56	-2.6157748e-05

encoder.4.weight f4 [12, 64]
0	0x0016c03c	2.089342e-39
1	0x001a92bd	2.440363e-39
2	0x801136a2	-1.580802e-39
3	0x801564d1	-1.964712e-39
4	0x001a4bf9	2.414977e-39
5	0x00196763	2.332976e-39
6	0x0029ba1e	3.832022e-39
7	0x80115afe	-1.593845e-39
8	0x0031c15b	4.569302e-39
9	0x801f9435	-2.900067e-39
10	0x800089e6	-4.9469e-41
11	0x0015434d	1.952688e-39
12	0x801ef9cb	-2.844674e-39
13	0x800aaf34	-9.81206e-40
14	0x00127d44	1.697976e-39
15	0x0005ca2a	5.317e-40
16	0x800e5e04	-1.319423e-39
17	0x802e9262	-4.276945e-39
18	0x8021bd91	-3.098575e-39
19	0x8003deb9	-3.55404e-40
20	0x000183ec	1.3916e-40
21	0x80417c4a	-6.013894e-39
22	0x000bd5f0	1.086937e-39
23	0x802c2d67	-4.057049e-39
24	0x801e8de9	-2.805973e-39
25	0x000ed161	1.360808e-39
26	0x0016d265	2.095856e-39
27	0x8018c0d0	-2.27322e-39
28	0x0021b773	3.09638e-39
29	0x00123f4c	1.675746e-39
30	0x80234762	-3.23985e-39
31	0x8000950f	-5.3472e-41
32	0x000165af	1.28313e-40
33	0x00153693	1.948123e-39
34	0x00054b80	4.86262e-40
35	0x8040d923	-5.955366e-39
36	0x00207b33	2.982931e-39
37	0x80330301	-4.684688e-39
38	0x8005f1bb	-5.45894e-40
39	0x9f9737b3	-6.4043134e-20
40	0x000d4023	1.21687e-39
41	0x000c335b	1.120449e-39
42	0x80025045	-2.12466e-40
43	0x0000b219	6.389e-41
44	0x00205b05	2.971388e-39
45	0xa35c3d05	-1.1939145e-17
46	0x001c2ca8	2.587414e-39
47	0x8013df0a	-1.824886e-39
48	0x00283c12	3.694969e-39
49	0x0014df18	1.916741e-39
50	0x0012f013	1.739161e-39
51	0x000f6cf0	1.416612e-39
52	0x00040c55	3.71766e-40
53	0x000bdbfa	1.089103e-39
54	0x003f56dc	5.816796e-39
55	0x800ac16f	-9.87746e-40
56	0xb5b0c70b	-1.3170951e-06
57	0x80384113	-5.166132e-39
58	0x8031fab3	-4.589873e-39
59	0x001c79f4	2.615142e-39
60	0x0022ef44	3.208239e-39
61	0x8023c070	-3.283276e-39
62	0x801ff5ad	-2.935032e-39
63	0x80143d14	-1.85862e-39
64	0x00267a14	3.533542e-39
65	0x80023492	-2.0253e-40
66	0x00203048	2.956056e-39
67	0x8010cde9	-1.543235e-39
68	0x80265473	-3.520044e-39
69	0x802adc91	-3.936215e-39
70	0x001db00e	2.726386e-39
71	0x00273c94	3.603316e-39
72	0x8017b862	-2.17836e-39
73	0x00216431	3.066513e-39
74	0x8042a6c3	-6.120966e-39
75	0x80037190	-3.16245e-40
76	0x80212b8a	-3.04619e-39
77	0x800ba611	-1.069764e-39
78	0x80066a10	-5.89061e-40
79	0x00128a28	1.7026e-39
80	0x80077fe9	-6.88734e-40
81	0x00105601	1.50022e-39
82	0x002bfb1d	4.039009e-39
83	0x802b8901	-3.998074e-39
84	0x8011716e	-1.601894e-39
85	0x00035204	3.04928e-40
86	0x8009b44b	-8.91196e-40
87	0x801119cc	-1.570458e-39
88	0x8022696d	-3.160227e-39
89	0x001b0c92	2.484068e-39
90	0x803814b2	-5.150212e-39
91	0x001544a9	1.953176e-39
92	0x0034f3a2	4.862845e-39
93	0x0039cb5c	5.307575e-39
94	0x80156598	-1.96499e-39
95	0x00023ce8	2.0552e-40
96	0x80064817	-5.76874e-40
97	0x0040b872	5.943638e-39
98	0x0000c9f0	7.2442e-41
99	0x800b4c9c	-1.037673e-39
100	0x000d88d2	1.242943e-39
101	0x0002f6d7	2.7222e-40
102	0x8016abd5	-2.082023e-39
103	0xba906d78	-0.0011018952
104	0x000e326d	1.303786e-39
105	0x803774e6	-5.092888e-39
106	0x0002d8e3	2.61475e-40
107	0x80142a19	-1.851812e-39
108	0x80061799	-5.59478e-40
109	0xbd212fff	-0.039352413
110	0x8017e062	-2.19271e-39
111	0x80205be0	-2.971694e-39
112	0x80065b8a	-5.83851e-40
113	0x0012bb39	1.720202e-39
114	0x8039f76a	-5.323379e-39
115	0x8017ee43	-2.197689e-39
116	0x0040bf46	5.946088e-39
117	0x0004790e	4.10768e-40
118	0x0005f0eb	5.45603e-40
119	0x0007dcc4	7.22044e-40
120	0xbaa6c2ac	-0.0012722812
121	0x000facf7	1.43958e-39
122	0x802baf76	-4.01187e-39
123	0x0008557c	7.6535e-40
124	0x000313a0	2.82547e-40
125	0x802349f2	-3.240769e-39
126	0x00380fc1	5.148439e-39
127	0x801f9754	-2.901187e-39
128	0x80029523	-2.37171e-40
129	0x8025d692	-3.474887e-39
130	0x00094e96	8.54711e-40
131	0x2d5af101	1.2445379e-11
132	0x003c6c56	5.548993e-39
133	0x803b1cf7	-5.428685e-39
134	0x804025a0	-5.890969e-39
135	0x8d0209dd	-4.0071215e-31
136	0x801dac46	-2.72503e-39
137	0x80161c3d	-2.030511e-39
138	0x0023a841	3.2746e-39
139	0x802d0b15	-4.136573e-39
140	0x2f1d51ef	1.4308175e-10
141	0x002ccb5c	4.113713e-39
142	0x00030cce	2.801e-40
143	0x802f947f	-4.369539e-39
144	0x001be586	2.561896e-39
145	0x0010b71a	1.535052e-39
146	0x000d559d	1.224574e-39
147	0x801d4767	-2.688844e-39
148	0x80116b6f	-1.599743e-39
149	0xb0f6c724	-1.7955455e-09
150	0xa9ac3ae0	-7.6485476e-14
151	0x000b3615	1.029591e-39
152	0x00145e04	1.870436e-39
153	0x0009581d	8.58129e-40
154	0x000f91fe	1.429905e-39
155	0x000444e6	3.92058e-40
156	0x003ae70f	5.409347e-39
157	0x0029f881	3.854402e-39
158	0x0018f3df	2.291536e-39
159	0x80036274	-3.10825e-40
160	0x00005880	3.1748e-41
161	0x0011af51	1.624095e-39
162	0xba3bd825	-0.0007165692
163	0x803b3518	-5.437341e-39
164	0x003a51cd	5.355803e-39
165	0xb5b26790	-1.3292174e-06
166	0x800a417b	-9.41845e-40
167	0xbd951097	-0.07278555
168	0x00237c6b	3.258875e-39
169	0xaf936648	-2.681182e-10
170	0x803c1108	-5.51624e-39
171	0x801ace65	-2.461763e-39
172	0x8001e1a8	-1.72786e-40
173	0xbe269b57	-0.16270195
174	0x803f17c6	-5.794165e-39
175	0xb9ae1b6c	-0.00033208297
176	0x002bf516	4.036847e-39
177	0x800a857e	-9.66243e-40
178	0x00153e5d	1.950917e-39
179	0x800d0305	-1.194945e-39
180	0x9c9986ce	-1.0159537e-21
181	0x00317cfb	4.544774e-39
182	0x8038cb56	-5.215731e-39
183	0x802ae8db	-3.940624e-39
184	0xbe098786	-0.13430604
185	0x001b88d4	2.528643e-39
186	0x35ddd954	1.6529034e-06
187	0x8024b1cd	-3.369861e-39
188	0x003bccc6	5.491753e-39
189	0x9315159c	-1.8817098e-27
190	0x802cdc2c	-4.119745e-39
191	0x003d1bd3	5.611947e-39
192	0x0039d8da	5.312415e-39
193	0x8005c3be	-5.29397e-40
194	0x003fbb92	5.852924e-39
195	0x002d64ec	4.168801e-39
196	0x002f0ea2	4.321518e-39
197	0x801ada93	-2.466133e-39
198	0x00143315	1.855035e-39
199	0x000ba434	1.069095e-39
200	0x000ac9aa	9.90698e-40
201	0x800ec9c3	-1.358075e-39
202	0x80069d5e	-6.07466e-40
203	0x802edd78	-4.303881e-39
204	0x8014dace	-1.915202e-39
205	0x0017a44b	2.171154e-39
206	0x803fba2a	-5.85242e-39
207	0x800c520d	-1.13146e-39
208	0x003db8cb	5.668256e-39
209	0x00093ac9	8.47608e-40
210	0x000dda39	1.272145e-39
211	0x0019ffb3	2.387615e-39
212	0x000a6ff1	9.58512e-40
213	0x8037c5d7	-5.121924e-39
214	0x80160755	-2.023011e-39
215	0x00299c55	3.821337e-39
216	0x803d0230	-5.60275e-39
217	0x8003416d	-2.98977e-40
218	0x802c4b7a	-4.067838e-39
219	0x0008e2ef	8.16092e-40
220	0x801ba4b3	-2.538641e-39
221	0x000fa614	1.43711e-39
222	0x8005af34	-5.22029e-40
223	0x000c6268	1.137327e-39
224	0x000339b4	2.96206e-40
225	0x00398d32	5.285275e-39
226	0x80160f11	-2.025786e-39
227	0x00226538	3.158717e-39
228	0x8024f2e4	-3.39321e-39
229	0x0024e597	3.388439e-39
230	0x8002235a	-1.96353e-40
231	0xbd9777ef	-0.073959224
232	0x000e4ca7	1.313195e-39
233	0x002c7e87	4.086151e-39
234	0x800f48c1	-1.403632e-39
235	0x80231f32	-3.225433e-39
236	0x802aab73	-3.918595e-39
237	0xbcf596f7	-0.029979212
238	0x0018aff6	2.267175e-39
239	0x0039c5db	5.3056e-39
240	0x00327aa6	4.635773e-39
241	0x001ab5fb	2.453005e-39
242	0x000556a2	4.90255e-40
243	0x80109e21	-1.526094e-39
244	0x00407cec	5.922285e-39
245	0x0022dbbe	3.201236e-39
246	0x80188efb	-2.255344e-39
247	0x00273bc4	3.603024e-39
248	0xbd8fd667	-0.07023316
249	0x002d648a	4.168664e-39
250	0x80324b8c	-4.618876e-39
251	0x000a9c39	9.74397e-40
252	0x0010861a	1.517475e-39
253	0x80006306	-3.5523e-41
254	0x80026092	-2.18314e-40
255	0x00268571	3.537619e-39

encoder.4.bias f4 [12]
0	0xa696842c	-1.0444166e-15
1	0x9a786b3a	-5.1371815e-23
2	0xb6cb5509	-6.059771e-06
3	0x8ee30b11	-5.5970477e-30
4	0x37495483	1.20002105e-05
5	0xbb200ba7	-0.0024421008
6	0xa77b0eed	-3.4841339e-15
7	0x3fda4d25	1.7054793
8	0xba0951ca	-0.0005238323
9	0x3f6dc589	0.9287954
10	0x13740475	3.0799327e-27
11	0xaa0959ca	-1.2199196e-13

encoder.6.weight f4 [3, 12]
0	0x2ead7935	7.88866e-11
1	0xbc50a642	-0.012734951
2	0xbd86d567	-0.06583672
3	0xba74071b	-0.000930892
4	0xb88aa2a0	-6.610644e-05
5	0xbd95dd30	-0.07317579
6	0x3d9c6567	0.076365285
7	0xbe7972f5	-0.24360259
8	0xbc1917d5	-0.009344061
9	0x3edab165	0.42713466
10	0x3db35054	0.08755556
11	0x3bb5af94	0.005544612
12	0xaf393cb2	-1.6847215e-10
13	0xbaed881a	-0.0018122226
14	0x3e0dd07e	0.13849065
15	0xb8eaf228	-0.000112030946
16	0x3a908664	0.001102638
17	0x3e0d2836	0.1378487
18	0x3d33f0f2	0.043930955
19	0x3ebb22c0	0.3654995
20	0xbc9bbb73	-0.019010281
21	0x3b5c08b0	0.0033574514
22	0xbd4261bc	-0.047456488
23	0xbdb27066	-0.087128446
24	0x8001b2f8	-1.56037e-40
25	0x000495ea	4.21121e-40
26	0xb1964a84	-4.374046e-09
27	0x8005ac52	-5.20994e-40
28	0x0c35d42d	1.4007582e-31
29	0xb3831cbf	-6.105392e-08
30	0x14e743ba	2.3351753e-26
31	0xba901576	-0.0010992724
32	0xaae56da3	-4.0754647e-13
33	0xb8de4787	-0.00010599108
34	0x93faa026	-6.326679e-27
35	0x03f741a1	1.4532423e-36

encoder.6.bias f4 [3]
0	0xbf2a8351	-0.6660662
1	0xbfa7dd36	-1.3114383
2	0x3d410416	0.047123037

decoder.0.weight f4 [12, 3]
0	0xbe51359d	-0.20430608
1	0xbe7fb6f9	-0.24972142
2	0x3baaf7f5	0.005217547
3	0x3f064f91	0.5246516
4	0xbf9496b2	-1.1608489
5	0xbc531e4e	-0.012885643
6	0x3e257f30	0.161618
7	0x3e892c47	0.26791593
8	0x3c18c518	0.009324335
9	0xbda9b17b	-0.08285805
10	0xbe9f6f32	-0.31139523
11	0x3c588e2b	0.013217489
12	0x3ebff49f	0.3749132
13	0x3e91b058	0.28454852
14	0x3b5df8c5	0.0033870202
15	0xbe44eec2	-0.19231704
16	0xbe2e00cd	-0.16992493
17	0xbdaa789f	-0.08323788
18	0xbe50dc0d	-0.20396443
19	0xbe1d1d17	-0.15343128
20	0x3df91c35	0.12163583
21	0xbe24c98f	-0.16092514
22	0xbe6dde16	-0.2322925
23	0xbc1b95d3	-0.00949617
24	0xbce5c450	-0.02804771
25	0xbe024b3e	-0.12724015
26	0xba643618	-0.00087055704
27	0xbe155069	-0.14581455
28	0xbf77c528	-0.9678521
29	0x3d585712	0.05281741
30	0xbe5ee7cd	-0.21768112
31	0x3ea5437a	0.32278043
32	0x3b53148a	0.0032208287
33	0xbe53a716	-0.20669207
34	0xbe9b649e	-0.30350202
35	0x3ba01b9b	0.0048861033

decoder.0.bias f4 [12]
0	0xbe639c35	-0.22227557
1	0xbc015cd8	-0.007895671
2	0xc02daad7	-2.7135522
3	0xbea4707e	-0.32117075
4	0x3ebe8e23	0.37217817
5	0xbe2c10fc	-0.16803354
6	0xbeb0f388	-0.345608
7	0xbe3ef6c6	-0.18648824
8	0xbe2196a0	-0.15780115
9	0xbeb65576	-0.35612077
10	0x3de92506	0.11384015
11	0x3fce0fe9	1.6098605

decoder.2.weight f4 [64, 12]
0	0xaeaf1879	-7.962426e-11
1	0x3cec1c55	0.028822104
2	0x3e0a83e5	0.13526876
3	0x2c846fac	3.7640637e-12
4	0x3e1faa16	0.15592226
5	0xafb444c1	-3.2790662e-10
6	0xa11c43a5	-5.2944383e-19
7	0x2f10142f	1.3103894e-10
8	0x00118f89	1.612694e-39
9	0x3cc292fa	0.023751725
10	0x3e22dd4e	0.15904734
11	0x3e081eaa	0.13292947
12	0x0020c54a	3.00951e-39
13	0xb121b8ad	-2.353356e-09
14	0x8291678f	-2.1365275e-37
15	0x00276971	3.61941e-39
16	0xb7b181b2	-2.1160438e-05
17	0x001ffe8d	2.938216e-39
18	0x0012938f	1.705973e-39
19	0x000c2629	1.115715e-39
20	0x000a6ec4	9.5809e-40
21	0x8000d606	-7.6777e-41
22	0xb68d03fc	-4.2025913e-06
23	0x8000dfd6	-8.0297e-41
24	0x000fbe20	1.445736e-39
25	0x80057106	-4.99723e-40
26	0x0000aabc	6.1248e-41
27	0x00393d5f	5.256639e-39
28	0x9cca1964	-1.3373802e-21
29	0x800fb8b0	-1.443786e-39
30	0x802c62d9	-4.076222e-39
31	0x800fcbfb	-1.450707e-39
32	0x0009c904	8.9863e-40
33	0x8013f245	-1.831784e-39
34	0xa3a8bb7d	-1.8294001e-17
35	0x80018fa4	-1.43364e-40
36	0x8001de49	-1.71576e-40
37	0x3ad94119	0.0016575187
38	0xb78d9dd1	-1.6881999e-05
39	0x80111777	-1.569621e-39
40	0xbdd38c68	-0.10329515
41	0x0002e036	2.64103e-40
42	0x001f0af5	2.850831e-39
43	0x80126f5b	-1.692986e-39
44	0x800bf892	-1.09936e-39
45	0x332787da	3.9006274e-08
46	0xbd82445c	-0.06360695
47	0xbbe57c37	-0.007003333
48	0xbd123cd1	-0.03570253
49	0xbe15a37d	-0.14613147
50	0x80085149	-7.63844e-40
51	0x39e1de46	0.0004308095
52	0xbfa441e8	-1.2832613
53	0x3d28c53e	0.04120373
54	0xbe160149	-0.14648928
55	0x3b89407a	0.0041885944
56	0xba84c5dd	-0.0010129769
57	0xbd154197	-0.036439504
58	0xbe635346	-0.22199735
59	0x3ee49f04	0.4465257
60	0xa5dcf5e4	-3.8330538e-16
61	0xbdaa8eeb	-0.08328041
62	0xbd250b9e	-0.040294282
63	0x8d336aee	-5.5287346e-31
64	0xbeaec33b	-0.34133324
65	0x239041c3	1.5640362e-17
66	0x80384268	-5.16661e-39
67	0x23abda6b	1.863236e-17
68	0x0033fd9c	4.774588e-39
69	0xba83865a	-0.0010034547
70	0xbd4bb26a	-0.049730696
71	0xbd85a638	-0.06525844
72	0x000ca52e	1.161281e-39
73	0xb5e5b79c	-1.7115267e-06
74	0xb9cd523a	-0.0003916191
75	0x0012a554	1.712347e-39
76	0xbd5cdd9d	-0.053922284
77	0x001f15d0	2.854725e-39
78	0x801e69a4	-2.792962e-39
79	0x00040f21	3.72769e-40
80	0x8004df01	-4.47341e-40
81	0x0a80d5a4	1.2406314e-32
82	0xbd21e8f0	-0.039528787
83	0xba0df2bf	-0.0005414895
84	0x002dfe66	4.223858e-39
85	0x95a95d8f	-6.8406166e-26
86	0x9d434fa0	-2.58492e-21
87	0x001d5a46	2.695613e-39
88	0xb7fca613	-3.0118075e-05
89	0x801988ab	-2.344915e-39
90	0x00240958	3.30943e-39
91	0x801892f5	-2.25677e-39
92	0x8007576e	-6.74212e-40
93	0x0005670b	4.96142e-40
94	0xb4598c2d	-2.0260696e-07
95	0x929dd4a1	-9.96051e-28
96	0x002af8cc	3.946342e-39
97	0xbc09a459	-0.008401
98	0xb779cae9	-1.48888e-05
99	0x001dfd3e	2.754076e-39
100	0xbd83ea93	-0.06441226
101	0x000a5ccd	9.51646e-40
102	0x000eb2b6	1.349806e-39
103	0x800d7ecf	-1.239352e-39
104	0x001c42c5	2.595346e-39
105	0xb51d1889	-5.852276e-07
106	0xbdb34d72	-0.08755006
107	0xbce31fb2	-0.027725074
108	0x80004ef3	-2.8322e-41
109	0xbe265914	-0.16244918
110	0xbe02cd1e	-0.12773558
111	0x1eff769d	2.7048232e-20
112	0xbe94aeda	-0.2903965
113	0x9dc2b3f1	-5.1537427e-21
114	0x1f604fd1	4.7499868e-20
115	0x8001eb95	-1.76346e-40
116	0x9f0df5fa	-3.006138e-20
117	0x3a9192d9	0.0011106386
118	0xbebbbb37	-0.3666627
119	0xbddd4fb2	-0.10806216
120	0xbd1fcdde	-0.03901469
121	0xbab59f57	-0.0013856691
122	0xbf0b7f0a	-0.5449072
123	0xbd73a0a7	-0.059479382
124	0xbf8f42f4	-1.1192307
125	0xbc4d5338	-0.012532048
126	0xbd736290	-0.05942017
127	0x3de83344	0.11337903
128	0xbae4099d	-0.0017397885
129	0xb9b3b602	-0.00034277147
130	0x3ef2e896	0.47443074
131	0xbf043c36	-0.51654375
132	0x003ed5be	5.770477e-39
133	0x00043686	3.86901e-40
134	0x0000b62e	6.5354e-41
135	0x801db573	-2.728321e-39
136	0x96b99e25	-2.9988165e-25
137	0x003eecd2	5.778756e-39
138	0x0026c3fd	3.560056e-39
139	0x000b151f	1.017767e-39
140	0x000ec407	1.356018e-39
141	0x000677fc	5.94055e-40
142	0x9e4e592a	-1.0923988e-20
143	0x800195b9	-1.45546e-40
144	0x00247a17	3.349875e-39
145	0xb585bfc9	-9.965089e-07
146	0xa9b1e285	-7.899674e-14
147	0x000a8265	9.65132e-40
148	0xbbe83daa	-0.007087429
149	0x803e0a2b	-5.697448e-39
150	0x001d5332	2.693074e-39
151	0x800dc875	-1.265772e-39
152	0x0006bce4	6.18774e-40
153	0x190817cc	7.035841e-24
154	0xbcfa61be	-0.030564185
155	0xb8ee7026	-0.00011369614
156	0x003c6289	5.545478e-39
157	0x9003f4cf	-2.6023788e-29
158	0x9a8f6b70	-5.931699e-23
159	0x800e0eb0	-1.290966e-39
160	0xb4f7ccf2	-4.6156453e-07
161	0x0003b0f5	3.38987e-40
162	0x002860d9	3.708162e-39
163	0x003e80a9	5.739955e-39
164	0x00158dd4	1.979424e-39
165	0x00078f83	6.94331e-40
166	0xae407287	-4.3757466e-11
167	0x800614a7	-5.58422e-40
168	0x8d2632d9	-5.1213905e-31
169	0xbd2c5031	-0.042068664
170	0xbeb13940	-0.3461399
171	0xbd6d2057	-0.05789217
172	0x3f0b05e1	0.54305845
173	0xb6d51faa	-6.351581e-06
174	0x3d5e6aa1	0.054300908
175	0x370d19e6	8.410285e-06
176	0x21436a26	6.6209056e-19
177	0xbc94f2fa	-0.018182267
178	0xbf848252	-1.0352271
179	0xbf55bd2c	-0.8349178
180	0x8008426b	-7.5851e-40
181	0xb8a0f264	-7.674543e-05
182	0xb21e04ba	-9.197885e-09
183	0x802cceab	-4.1149e-39
184	0xbc8f38e1	-0.017483177
185	0x80282af3	-3.688827e-39
186	0x801cbb55	-2.638596e-39
187	0x000bd211	1.085548e-39
188	0x000891d0	7.86992e-40
189	0x800802d6	-7.35701e-40
190	0xbb392131	-0.0028248543
191	0xa069dec0	-1.980957e-19
192	0x000026de	1.3943e-41
193	0xbf4a8b85	-0.7911914
194	0x3dfeec2b	0.12447389
195	0xbd8d2054	-0.06890932
196	0x3f13c641	0.57724386
197	0x348a1ac9	2.5723992e-07
198	0x3796d360	1.7979823e-05
199	0xb1c1620c	-5.628186e-09
200	0x0001d339	1.67608e-40
201	0x0001f43e	1.79453e-40
202	0xbe869570	-0.26285887
203	0x030f93bb	4.219351e-37
204	0x304c9491	7.4425893e-10
205	0xbeca92bd	-0.39565077
206	0xbde5a05a	-0.11212225
207	0x002db4fd	4.197524e-39
208	0xbe78a1dd	-0.24280496
209	0xac7e71bf	-3.6158713e-12
210	0x002c9e78	4.09761e-39
211	0x2e8c7140	6.38658e-11
212	0x800beb5a	-1.094619e-39
213	0xbdeadb9b	-0.11467668
214	0xbe636d54	-0.22209674
215	0xbe3183f7	-0.17335497
216	0xbca14e50	-0.019690663
217	0x3ecb8da5	0.39756504
218	0xbf90e344	-1.1319356
219	0xbd67cbb3	-0.056590747
220	0x3e1b55ad	0.15169401
221	0xbe576e3a	-0.21038142
222	0x3e87ead4	0.26546347
223	0xbd26b8f3	-0.040703725
224	0xbc80e590	-0.015734464
225	0xbeddc68d	-0.43315545
226	0xbfa48edd	-1.2856098
227	0xbee81fc1	-0.45336726
228	0xb898408e	-7.259949e-05
229	0xbf7a6025	-0.97802955
230	0xbea7ab35	-0.32747808
231	0x3e611d8f	0.21983932
232	0x3eb8fd56	0.3613078
233	0xbd3ce4ed	-0.04611676
234	0x3ee6db67	0.45089266
235	0x3d0f6f69	0.03501836
236	0xb603aa30	-1.9619583e-06
237	0x3daf772d	0.08567653
238	0xbf653130	-0.8952818
239	0xbe81bcc4	-0.2533933
240	0xa65015ef	-7.219422e-16
241	0x2604cb43	4.607217e-16
242	0x240b5041	3.0208798e-17
243	0x9494bf4e	-1.5019637e-26
244	0xb3b95a55	-8.631165e-08
245	0x9bcfb46b	-3.436187e-22
246	0x855190b8	-9.8537134e-36
247	0xa4fcec78	-1.0968817e-16
248	0x800907fb	-8.29382e-40
249	0xa6723763	-8.403568e-16
250	0xbc0a4943	-0.0084403185
251	0xa71b4757	-2.1549245e-15
252	0x003966eb	5.271543e-39
253	0xae92356e	-6.648802e-11
254	0xb0a143bc	-1.1733543e-09
255	0x80009747	-5.4268e-41

decoder.2.bias f4 [64]
0	0x3e14f96a	0.14548269
1	0xa3d244eb	-2.2797434e-17
2	0x80071ec7	-6.5389e-40
3	0xbcf9c36d	-0.030488694
4	0x3d2cb4cd	0.042164613
5	0xbe011be7	-0.126083
6	0xbb840fa5	-0.0040301853
7	0xa8eca2ba	-2.6271835e-14
8	0xbcb7dcbf	-0.022444127
9	0xbe2b46c5	-0.16726215
10	0x3eda3f98	0.42626643
11	0x0007787a	6.86067e-40
12	0xbaa2aec8	-0.0012411708
13	0x99caa921	-2.0954621e-23
14	0x3d6dfac3	0.058100473
15	0xb00d03d1	-5.1300925e-10
16	0xc01593e3	-2.3371513
17	0xbdc3dc00	-0.09563446
18	0x3f3396a6	0.70151746
19	0x3f93c8b6	1.1545627
20	0xa68c74b5	-9.746085e-16
21	0xb3a0df1d	-7.491165e-08
22	0xbb0b5379	-0.002125947
23	0xa3e0c8f4	-2.4371236e-17
24	0xaea623ab	-7.555142e-11
25	0x06a41a91	6.172898e-35
26	0xa484ac7c	-5.7538075e-17
27	0x3e012277	0.12610804
28	0xbeec2e3c	-0.46129024
29	0x9edd828b	-2.3453276e-20
30	0x00052fa3	4.76266e-40
31	0xb3f8bbcd	-1.1582561e-07
32	0x8b8696ee	-5.1842016e-32
33	0x963e6845	-1.538098e-25
34	0xbd733ac0	-0.0593822
35	0x00025acc	2.16243e-40
36	0x00020ab6	1.87513e-40
37	0xb8e0bb5f	-0.00010716053
38	0xa47681d1	-5.3452706e-17
39	0x3e7202b2	0.2363384
40	0xbf8299aa	-1.0203145
41	0x3f69001a	0.9101578
42	0xbec55e87	-0.3854868
43	0xbd816894	-0.06318775
44	0xbe5c103b	-0.21490566
45	0x3f3daa5a	0.7408806
46	0xbc852203	-0.01625157
47	0x8b6ba1f6	-4.53812e-32
48	0xb842f58b	-4.6481884e-05
49	0xbc2720dd	-0.010200706
50	0x9f9a8afa	-6.5451454e-20
51	0xbd8d9bc3	-0.06914475
52	0x92f0d449	-1.5198462e-27
53	0x80074a41	-6.69486e-40
54	0x3f6b3076	0.9187082
55	0xb98d710e	-0.00026977848
56	0x000547d2	4.84942e-40
57	0xbdd65cab	-0.10466894
58	0x80006fc9	-4.0101e-41
59	0xbd01afd2	-0.031661816
60	0xbbe63b5b	-0.0070261187
61	0xbe27ab32	-0.163739
62	0xbbfa6f80	-0.0076426864
63	0xa6370ce0	-6.350833e-16

decoder.4.weight f4 [128, 64]
0	0x000e582b	1.317326e-39
1	0x0013b9c5	1.811516e-39
2	0x801e0c7b	-2.759542e-39
3	0x000f222e	1.389794e-39
4	0x80013054	-1.09172e-40
5	0x0008a256	7.92919e-40
6	0x001030ce	1.486876e-39
7	0x00248f24	3.357427e-39
8	0x0009f0e6	9.12938e-40
9	0x80082636	-7.48391e-40
10	0x2e1278fe	3.330402e-11
11	0x80093671	-8.4605e-40
12	0x0004a92a	4.28027e-40
13	0x80007e90	-4.5402e-41
14	0x80009d7f	-5.6499e-41
15	0x80055a7a	-4.91634e-40
16	0x00084e9b	7.62882e-40
17	0x8014ea5e	-1.920785e-39
18	0x00038124	3.21833e-40
19	0x80051050	-4.6503e-40
20	0x000695c2	6.04736e-40
21	0x000394cf	3.28889e-40
22	0x800b1266	-1.01679e-39
23	0x0009dbef	9.05417e-40
24	0x800acc9f	-9.91759e-40
25	0x000b92e3	1.062883e-39
26	0x00062e1f	5.67558e-40
27	0x0002f506	2.71569e-40
28	0x0007ea32	7.26862e-40
29	0x00230aa8	3.218065e-39
30	0x000337d4	2.95534e-40
31	0x000dad82	1.256104e-39
32	0x002ca92b	4.101448e-39
33	0x0007c59b	7.13736e-40
34	0x80034946	-3.01792e-40
35	0x0000fe4f	9.1229e-41
36	0x8006ff2f	-6.42556e-40
37	0x8006e2b4	-6.32339e-40
38	0x0013d7da	1.822307e-39
39	0x00057490	5.00992e-40
40	0x9be1339e	-3.7256484e-22
41	0x00074a90	6.69596e-40
42	0x00033a87	2.96502e-40
43	0x800865ae	-7.7116e-40
44	0x00184712	2.229547e-39
45	0xb0a4e9ed	-1.1999056e-09
46	0x800b86df	-1.058573e-39
47	0x00032afe	2.90929e-40
48	0x8006727a	-5.9208e-40
49	0x8002528a	-2.1328e-40
50	0x8040a9f7	-5.938444e-39
51	0x0b991ac5	5.8973735e-32
52	0x80033173	-2.93246e-40
53	0x00075907	6.74785e-40
54	0x8001bb19	-1.58953e-40
55	0x800b6749	-1.047242e-39
56	0x80078fef	-6.94482e-40
57	0x80001275	-6.621e-42
58	0x80013b35	-1.13075e-40
59	0x00069002	6.02673e-40
60	0x00299aaf	3.820745e-39
61	0xae3659c8	-4.146175e-11
62	0x000f4728	1.403058e-39
63	0x8006ed19	-6.36068e-40
64	0x00134a3a	1.771502e-39
65	0x0030103f	4.413932e-39
66	0x80111270	-1.567818e-39
67	0x002a340a	3.875759e-39
68	0x00175aec	2.144833e-39
69	0x802aed86	-3.942298e-39
70	0x002d4165	4.156056e-39
71	0x0023750e	3.256234e-39
72	0x8016f9b7	-2.109962e-39
73	0x8025861d	-3.446024e-39
74	0x000a3745	9.38182e-40
75	0x801038b5	-1.48971e-39
76	0x8036c4f9	-5.029777e-39
77	0x00412c9b	5.985309e-39
78	0x00076f71	6.82826e-40
79	0x8019202c	-2.307428e-39
80	0x00093236	8.44532e-40
81	0x802f541c	-4.346441e-39
82	0xad180281	-8.640756e-12
83	0x80099caf	-8.82727e-40
84	0x002777c3	3.624547e-39
85	0x802625a7	-3.503256e-39
86	0x0001e41e	1.73669e-40
87	0x801486b9	-1.88504e-39
88	0x000e015f	1.286189e-39
89	0x802cccff	-4.1143e-39
90	0x0012f217	1.739884e-39
91	0x8008ff2d	-8.26224e-40
92	0x13d3f6c5	5.350722e-27
93	0x803ba25a	-5.476535e-39
94	0x8007295a	-6.57683e-40
95	0x002184b9	3.078183e-39
96	0x000345b2	3.00508e-40
97	0x00122ff6	1.670244e-39
98	0x00159713	1.98274e-39
99	0x800a51b8	-9.4767e-40
100	0x800d5a2a	-1.226206e-39
101	0x8016febe	-2.111765e-39
102	0x802ecc55	-4.297733e-39
103	0x0006a26d	6.0928e-40
104	0x0004fe1b	4.58498e-40
105	0xa0688ccf	-1.9697754e-19
106	0x803bb9a6	-5.484892e-39
107	0x0006bffe	6.19887e-40
108	0x001fa8ac	2.907408e-39
109	0x0003d3a2	3.51426e-40
110	0x00210b8b	3.034712e-39
111	0x00099c0d	8.825e-40
112	0x800cb7d2	-1.167968e-39
113	0x8026044b	-3.491289e-39
114	0x803958d3	-5.266487e-39
115	0x800a8bd8	-9.68521e-40
116	0x801c6642	-2.608077e-39
117	0x800b13f7	-1.017352e-39
118	0x00088a2e	7.84254e-40
119	0x001b619a	2.514571e-39
120	0x8031fd98	-4.590912e-39
121	0x804179c9	-6.012996e-39
122	0x002bec4b	4.033692e-39
123	0x802fcf44	-4.390621e-39
124	0x179e8e4a	1.02464295e-24
125	0x000423d0	3.80189e-40
126	0x001b7573	2.521691e-39
127	0x0004534a	3.9722e-40
128	0x801c2556	-2.584788e-39
129	0x0005ab54	5.20638e-40
130	0x800623c6	-5.63846e-40
131	0x80251f20	-3.409079e-39
132	0x9f225d39	-3.4381946e-20
133	0x80332fa7	-4.700705e-39
134	0x001a3df4	2.409947e-39
135	0x00206e24	2.978247e-39
136	0x00249b0d	3.3617e-39
137	0x000fe5cd	1.45997e-39
138	0xbb95f249	-0.004576002
139	0x8005c451	-5.29603e-40
140	0x001caedf	2.634126e-39
141	0x003e882f	5.742654e-39
142	0xbd98f2ea	-0.07468207
143	0x000f18dc	1.38645e-39
144	0xbdfd7521	-0.12375856
145	0x00223c87	3.14412e-39
146	0xbbc71b07	-0.00607622
147	0xb9251898	-0.00015744788
148	0x800a30f8	-9.35922e-40
149	0x00104e6f	1.497505e-39
150	0x0010cd8f	1.543108e-39
151	0x8011251b	-1.574514e-39
152	0x00097291	8.67618e-40
153	0x004045e4	5.902544e-39
154	0x00294282	3.789114e-39
155	0x8004af00	-4.3012e-40
156	0xb33c1969	-4.379527e-08
157	0x80143b79	-1.858045e-39
158	0x0009a842	8.86879e-40
159	0x80007549	-4.2074e-41
160	0x00145e99	1.870645e-39
161	0x000a79b5	9.62015e-40
162	0xac11f32a	-2.0740723e-12
163	0x000a7b5a	9.62605e-40
164	0x00185eed	2.238105e-39
165	0x8014fca0	-1.927335e-39
166	0x8030405b	-4.43119e-39
167	0xa99c7abd	-6.9490834e-14
168	0xbe2f354c	-0.17110175
169	0xbc1bfc37	-0.009520582
170	0x001eb730	2.82078e-39
171	0x0006b246	6.14965e-40
172	0x004044ce	5.902154e-39
173	0xbc2e8d19	-0.0106537575
174	0x0008f0ee	8.21113e-40
175	0x0009605d	8.61088e-40
176	0x802068ef	-2.976379e-39
177	0x8008591c	-7.6665e-40
178	0x0024f981	3.395583e-39
179	0x9c0fe392	-4.760886e-22
180	0x0018a913	2.264704e-39
181	0x0003546f	3.05796e-40
182	0xbac53634	-0.0015046061
183	0x80278014	-3.62753e-39
184	0x802abfb3	-3.92586e-39
185	0x801dd0ae	-2.73809e-39
186	0x002326b3	3.228125e-39
187	0x803c3690	-5.529703e-39
188	0x803a273c	-5.340533e-39
189	0xbcee2149	-0.029068606
190	0x803897de	-5.197267e-39
191	0x801a86b1	-2.436041e-39
192	0xbd48a495	-0.048985083
193	0x194d8652	1.0625377e-23
194	0x8005007a	-4.59348e-40
195	0x39f30afb	0.00046356753
196	0x00a9f462	1.5607867e-38
197	0xba8e46d7	-0.0010854852
198	0xb89091f6	-6.8936424e-05
199	0x222b2a32	2.319716e-18
200	0x3928d565	0.00016101224
201	0xbd882c7c	-0.0664911
202	0xa564de00	-1.9851064e-16
203	0x8004a792	-4.27455e-40
204	0xb290673d	-1.6810754e-08
205	0x875ed0ef	-1.6762824e-34
206	0x3f00429f	0.50101656
207	0xb67d5a2b	-3.7752422e-06
208	0xbf784aef	-0.9698934
209	0x3d70b271	0.058763925
210	0xbea1e803	-0.31622323
211	0x3e7f8217	0.24951969
212	0x9ecda51d	-2.1773509e-20
213	0xb5ff8f30	-1.9040654e-06
214	0x2cf2e5bf	6.9035606e-12
215	0x244d36c1	4.4498667e-17
216	0xab42e978	-6.924665e-13
217	0x800404d9	-3.69081e-40
218	0x070b5bbe	1.0484158e-34
219	0xb153e028	-3.083196e-09
220	0xbf043ea2	-0.5165807
221	0x000789ac	6.92236e-40
222	0x800cb09a	-1.165379e-39
223	0x18945791	3.8345523e-24
224	0x80039bc6	-3.31387e-40
225	0x91e93f7c	-3.6800043e-28
226	0xb67424d6	-3.6380275e-06
227	0x000401d7	3.68002e-40
228	0x000787dc	6.91586e-40
229	0x80034cef	-3.03105e-40
230	0x0004c868	4.39234e-40
231	0x3d82d4e3	0.06388261
232	0xbe00699d	-0.12540288
233	0xbe5eeb74	-0.21769506
234	0xbe1046ff	-0.14089583
235	0xbc5e154e	-0.013554884
236	0xbdca2a46	-0.09871344
237	0xbf40ff3f	-0.75389475
238	0x3b861a05	0.0040924572
239	0x807ab2a3	-1.1268013e-38
240	0xa7d235c1	-5.834499e-15
241	0xbb16f6db	-0.002303532
242	0x80075458	-6.73105e-40
243	0x8009761a	-8.68886e-40
244	0x80067d81	-5.96035e-40
245	0x0005e26f	5.40407e-40
246	0xbf2e6346	-0.6812023
247	0x2eb723b0	8.328216e-11
248	0x0000a438	5.891e-41
249	0x3cff54fa	0.03116845
250	0x0004f9f5	4.5701e-40
251	0xb8897d01	-6.555953e-05
252	0x933e2e62	-2.400424e-27
253	0xbe917367	-0.28408358
254	0x3bb687bf	0.0055703814
255	0xa4b75fae	-7.952569e-17

decoder.4.bias f4 [128]
0	0xa3feaa07	-2.7610745e-17
1	0xa02ceee5	-1.464801e-19
2	0xbd17090d	-0.036873866
3	0x3f15389f	0.5828952
4	0xbc787b9c	-0.0151661895
5	0xb88712be	-6.440793e-05
6	0xa6771a35	-8.5730857e-16
7	0xbc9e5da8	-0.019331768
8	0x8b304f2c	-3.395593e-32
9	0xbbc04e83	-0.0058687343
10	0xa3ab7fe9	-1.859403e-17
11	0xbd365ab9	-0.044520114
12	0xbedc199c	-0.42988288
13	0xbe610a18	-0.21976507
14	0xbf8d7b20	-1.10532
15	0x3e5be860	0.21475363
16	0x9175f3ef	-1.940226e-28
17	0xba17e9da	-0.00057950395
18	0x3f785d2e	0.9701718
19	0xbd1e14b9	-0.03859398
20	0xb3a4038a	-7.637489e-08
21	0xbe5ac4e5	-0.21364172
22	0xa56eafa7	-2.0702723e-16
23	0xb33a3a38	-4.335945e-08
24	0xb245919f	-1.150002e-08
25	0xb8073fdf	-3.2245993e-05
26	0xbda5fec4	-0.08105233
27	0xa82554bd	-9.177715e-15
28	0xbe02449e	-0.12721488
29	0x99d07ef2	-2.1557969e-23
30	0xbbdd129c	-0.006746603
31	0xb9b7f8dc	-0.00035089895
32	0xb35e4fb1	-5.1760882e-08
33	0xa8b49292	-2.004758e-14
34	0xbe45ac9d	-0.19304128
35	0xb5beddf1	-1.4220697e-06
36	0xbde3c0fa	-0.11120792
37	0xb6f4937a	-7.288935e-06
38	0xb0a54a6a	-1.202648e-09
39	0xa328574b	-9.125783e-18
40	0xbac7dde8	-0.0015248628
41	0xbf7e2eb4	-0.99290013
42	0xbd86c224	-0.06579998
43	0x3df54b1d	0.11977217
44	0x3dcb0329	0.09912712
45	0xb3045a4a	-3.0815762e-08
46	0x3e389787	0.18026553
47	0xb73bf567	-1.1203206e-05
48	0xbe5f5289	-0.21808828
49	0xb51be55c	-5.807576e-07
50	0xbebe6df8	-0.37193274
51	0xc01b7836	-2.429212
52	0xa1a00e09	-1.0845737e-18
53	0xbc29c239	-0.010361248
54	0xa8c439c4	-2.1785423e-14
55	0xa6ce1f0b	-1.4302536e-15
56	0xb1611d5d	-3.27585e-09
57	0xbd308414	-0.04309471
58	0x3fa137a7	1.2595109
59	0xb3b98254	-8.6384404e-08
60	0xbc56128d	-0.013065946
61	0xa6955ea3	-1.0364603e-15
62	0x98dd48ed	-5.7200797e-24
63	0xbe7c6be9	-0.2465054
64	0x9d6f4e8f	-3.1672e-21
65	0xb60e2b29	-2.1184771e-06
66	0xbd91d232	-0.0712017
67	0x402b0c43	2.6726234
68	0xb8d912e7	-0.00010350887
69	0xbd935b1c	-0.07195112
70	0xbdf5506b	-0.11978229
71	0x22ef0adc	6.4792578e-18
72	0xaa027db4	-1.1589931e-13
73	0xbdf51b01	-0.11968041
74	0xb619b0e1	-2.2901734e-06
75	0xbedf9002	-0.43664557
76	0xa4ad53bb	-7.5168635e-17
77	0xb89c78ed	-7.461184e-05
78	0xbeab393f	-0.33442113
79	0xa98182f3	-5.751467e-14
80	0xbcdf13b2	-0.027231071
81	0x9dcf81fe	-5.4926853e-21
82	0xba0776c3	-0.0005167538
83	0xb99908c4	-0.00029188965
84	0xbd24cf91	-0.040237013
85	0xbe07ee1d	-0.13274427
86	0xb1bfe2e9	-5.5846283e-09
87	0x8ca4023b	-2.5269543e-31
88	0xba5f7a59	-0.0008525006
89	0xbe0743ed	-0.13209505
90	0xbe46b643	-0.19405465
91	0xbdf15b0e	-0.117849454
92	0xbd95af5a	-0.07308836
93	0x8dbdcd13	-1.1697394e-30
94	0xae09585a	-3.1228665e-11
95	0x8a109e11	-6.963077e-33
96	0xbd1fdfe8	-0.039031893
97	0x3f709ae5	0.9398635
98	0xbd0b2578	-0.03397128
99	0xab101f8a	-5.1202846e-13
100	0x9d7046fb	-3.1800432e-21
101	0xbe92240b	-0.28543124
102	0xbf0063fb	-0.5015256
103	0xbe996953	-0.29963169
104	0xbf005a34	-0.5013764
105	0xadaf25d6	-1.9912e-11
106	0xaf12c772	-1.334948e-10
107	0xbe02d6eb	-0.12777297
108	0x3ea7e00b	0.3278812
109	0xbed7c60e	-0.4214329
110	0xbe8cd40b	-0.27505526
111	0xbc61f4dc	-0.013791289
112	0x8da99d2b	-1.0453266e-30
113	0xbc284ce8	-0.010272242
114	0xbd210186	-0.039308093
115	0xb9ca8c02	-0.00038632756
116	0xba1a5ead	-0.00058887416
117	0xbf1a1ce3	-0.6020033
118	0xb87c8e93	-6.0214265e-05
119	0xbf6068f9	-0.87660176
120	0xb00a78ea	-5.0375937e-10
121	0xb0ac48c3	-1.2535327e-09
122	0xbde1ac36	-0.11019175
123	0xb467ee84	-2.1600323e-07
124	0x3eae74d4	0.34073508
125	0xbed96f74	-0.42467844
126	0xb8d30833	-0.00010062791
127	0xbb1b0f9a	-0.0023660422
