lessons/lesson-7/simple-ae-weights-100.pt (torch, 885053 bytes, 16 tensors)

encoder.0.weight f4 [128, 784]
0.031243011 -0.00039445504 0.016583469 -0.008313132 0.0034228012 0.00523457 0.024108155 0.0145465145
-6.682533e-05 -0.023976097 -0.02557663 0.006266909 0.02620222 -0.0069305263 -0.021200236 -0.0072400915
0.02726514 0.002876963 0.016699273 -0.0024221498 -0.017320506 -0.0013634223 0.020707928 -0.03250875
-0.009298491 0.0058204876 -0.0057571745 0.0151512455 0.006672566 -0.027223619 -0.034181394 -0.011240904
-0.006826022 0.012820457 -0.03550334 0.012135323 -0.0026840442 -0.020274311 -0.022708485 -0.0049468027
0.025344858 0.0038230848 0.021436429 0.011077937 0.028274776 0.025827758 -0.02199508 -0.0032697492
0.0051339567 0.027188158 -0.0130023025 -0.004373091 0.019684494 0.033488553 0.012151173 0.009313017
-0.015759192 0.003457044 -0.025104834 -0.017813824 0.02808749 -0.019196963 -0.013945155 -0.02510185
0.013187111 0.00742943 0.011751929 0.02936175 -0.0060552573 0.011648174 -0.020863589 -0.02489056
0.02329013 -0.017290354 -0.010766992 -0.01530764 -0.014770014 -0.009324441 0.019630253 0.009131819
-0.020733714 0.001678701 -0.03569161 -0.009743597 -0.010765395 -0.019139687 0.010834639 -0.019013155
0.016351828 0.03309999 0.022728313 0.0004415129 -0.015085932 -0.022821879 0.012323869 0.034807343
0.031837836 -0.03308148 0.00695427 -0.024086025 0.019336455 -0.033739388 -0.010011601 -0.033506826
-0.010837134 -0.027697165 -0.03276705 -0.03331701 -0.029862436 -0.016986018 -0.01708468 0.015358133
-0.0050644027 0.034429472 0.018182307 -0.030214349 -0.023565391 -0.014334994 0.00017769422 -0.012946508
-0.015082645 -0.03488791 -0.011344383 -0.02653152 0.015390895 -0.014954099 0.0073644733 0.018403536
0.015320493 0.016507065 -0.007159016 -0.026882986 -0.02678586 -0.018325364 -0.0009444612 -0.016919244
-0.0055037313 0.012760342 0.02150373 0.009828338 -0.026440877 0.0025957867 0.0017040415 0.026105119
-0.010426811 -0.016094817 -0.0076825153 0.003509177 -0.0077719735 -0.018219693 0.015113138 0.018187724
0.032412305 0.017573562 0.010899336 0.035618477 0.017749796 -0.026174154 -0.0001695071 -0.020259475
0.01855187 -0.019715905 -0.025096605 -0.004909026 -0.023001915 0.004041459 -0.003031105 0.022598574
0.017417384 0.026804611 -0.0031030094 0.028549895 0.009373474 -0.020893775 -0.00584768 0.02987416
-0.0107621085 0.014650533 0.023179315 -0.0082726525 -0.005507461 0.002223496 -0.028949823 -0.003918763
0.0036323797 -0.010007135 -0.0040216744 -0.028429858 -0.020723898 0.010390018 0.0049854475 -0.0058031254
-0.014325164 -0.0011331525 0.03375336 -0.020777103 -0.007368033 0.03565665 -0.029680096 0.02117386
-0.004169464 0.018977135 0.020522289 0.0034264838 -0.01721037 0.0053343903 0.0029632407 0.008788969
-0.024618184 -0.030380609 0.007013236 0.019002685 -0.0145947 0.014867434 0.004384305 0.0065609473
1.1401517e-05 0.024920685 0.029304689 0.030163588 -0.017925298 0.006769662 0.0010480115 -0.017619798
0.0062919646 0.035634883 0.03478966 0.033174735 0.011206206 0.031442977 -0.017539246 0.014317782
0.021985183 -0.024452044 0.018360062 0.015283598 -0.019657357 -0.029577615 -0.016822863 0.0102825
-0.0007234088 0.033385307 0.03532036 -0.03411724 0.00083751767 -0.021116795 0.0012797373 0.013089282
-0.013801294 -0.024286587 -0.013968707 0.027374163 0.020343628 0.03147718 -0.034566574 -0.009963032
00000000: 58f1 ff3c dcce ceb9 0eda 873c ce33 08bc
00000010: 1351 603b c186 ab3b 777e c53c 8154 6e3c
00000020: 9324 8cb8 8569 c4bc 1586 d1bc a55a cd3b
00000030: 0aa6 d63c 7819 e3bb 1eac adbc 4a3e edbb
00000040: 255b df3c 6e8b 3c3b eacc 883c eebc 1ebb
00000050: bce3 8dbc dcb4 b2ba aca3 a93c e527 05bd
00000060: b358 18bc cab9 be3b aea6 bcbb ee3c 783c
00000070: 8aa5 da3b 1104 dfbc ca01 0cbd c52b 38bc
00000080: d3ac dfbb e50c 523c f36b 11bd 3cd3 463c
00000090: cae6 2fbb 5016 a6bc 2507 babc ca18 a2bb
000000a0: 05a0 cf3c b88c 7a3b 739b af3c 3c80 353c
000000b0: 81a0 e73c bc94 d33c 072f b4bc 4a49 56bb
000000c0: c03a a83b b3b9 de3c 9c07 55bc 254c 8fbb
000000d0: 6041 a13c 4b2b 093d b715 473c a095 183c
000000e0: 6c19 81bc 938f 623b a7a8 cdbc 4cee 91bc
000000f0: bc17 e63c f342 9dbc 387a 64bc 65a2 cdbc
00000100: c10e 583c 9372 f33b 2a8b 403c 0e88 f03c
00000110: 2e6b c6bb fcd7 3e3c 1eea aabc 4ae7 cbbc
00000120: f1ca be3c 80a4 8dbc 0a68 30bc e5cc 7abc
00000130: eefd 71bc 8ac5 18bc a0cf a03c a09d 153c
00000140: c0d9 a9bc dc07 dc3a 5e31 12bd 9ca3 1fbc
00000150: 5761 30bc d5ca 9cbc c583 313c 7ac1 9bbc
00000160: 45f4 853c db93 073d ba30 ba3c dc7a e739
00000170: fc2a 77bc f3f4 babc 0eea 493c 2592 0e3d
00000180: 6468 023d 7280 07bd a5e0 e33b 0e50 c5bc
00000190: 7c67 9e3c 5032 0abd b307 24bc 743e 09bd
000001a0: 3c8e 31bc 2ae5 e2bc be36 06bd 6b77 08bd
000001b0: 11a2 f4bc 4326 8bbc 2cf5 8bbc aea0 7b3c
000001c0: 4af3 a5bb eb05 0d3d 10f3 943c 1584 f7bc
000001d0: 350c c1bc 53dd 6abc 6e53 3a39 971d 54bc
000001e0: 331d 77bc a0e6 0ebd cadd 39bc a158 d9bc
000001f0: 182a 7c3c 0a02 75bc ae51 f13b 03c3 963c
00000200: ce02 7b3c d339 873c 2e96 eabb b539 dcbc
00000210: 056e dbbc 131f 96bc b895 77ba 3a9a 8abc
00000220: a558 b4bb c110 513c 9728 b03c 0a07 213c
00000230: 8a9a d8bc 131e 2a3b 255a df3a 67da d53c
00000240: 37d5 2abc 47d9 83bc 9cbd fbbb 38fa 653b
00000250: 0aac febb 7741 95bc 189d 773c 6cfe 943c
00000260: c4c2 043d 6ef6 8f3c 2193 323c aee4 113d
00000270: 0568 913c 2e6b d6bc b7bd 31b9 33f7 a5bc
00000280: 17fa 973c 4083 a1bc 6597 cdbc e5db a0bb
00000290: 836e bcbc 376e 843b 81a5 46bb a520 b93c
000002a0: e7ae 8e3c 5895 db3c dc5b 4bbb 78e1 e93c
000002b0: 3393 193c 6c29 abbc e59d bfbb a8ba f43c
000002c0: 8e53 30bc ca08 703c 8ce2 bd3c 058a 07bc
000002d0: ee77 b4bb 13b8 113b 2e28 edbc f768 80bb
000002e0: 380d 6e3b f7f4 23bc 40c8 83bb bce5 e8bc
000002f0: 2ac5 a9bc e53a 2a3c f75c a33b 2528 bebb
00000300: 18b4 6abc 4a86 94ba f740 0a3d be34 aabc
00000310: 8a6f f1bb b50c 123d ac23 f3bc ce74 ad3c
00000320: 00a0 88bb f075 9b3c 5c1e a83c dc8e 603b
00000330: c3fc 8cbc 1ccc ae3b ee32 423b 9cff 0f3c
00000340: 13ac c9bc c1e0 f8bc 4acf e53b 85ab 9b3c
00000350: 9c1e 6fbc 8a96 733c 37aa 8f3b 37fd d63b
00000360: 2549 3f37 7726 cc3c 6310 f03c a119 f73c
00000370: 13d8 92bc 0ad4 dd3b 6e5d 893a 6557 90bc
00000380: d32c ce3b e2f5 113d 9a7f 0e3d 3be2 073d
00000390: 3c9a 373c 5aca 003d 77ae 8fbc 2195 6a3c
000003a0: 451a b43c a74f c8bc d767 963c 0e68 7a3c
000003b0: 7708 a1bc c14c f2bc 1ad0 89bc ee77 283c
000003c0: 25a3 3dba 08bf 083d 15ac 103d 85be 0bbd
000003d0: dc8c 5b3a 21fd acbc dcbc a73a 6e74 563c
000003e0: d31e 62bc aaf4 c6bc 01dd 64bc c83f e03c
000003f0: aea7 a63c 37ee 003d ae95 0dbd fc3b 23bc

encoder.0.bias f4 [128]
0.006403072 -0.016452461 0.0054743337 -0.0004074446 0.0004816822 -0.030496296 0.025522407 -0.00025449056
-0.027691761 -0.013830045 0.03570458 -0.004930258 0.025363183 0.0051957415 -0.02171165 0.0048260605
-0.0024196294 0.00786697 -0.032351185 -0.010964271 -0.013843776 0.022718925 -0.0161831 -0.025336893
0.013279775 0.0067220246 0.03017802 -0.031204179 0.027650693 -0.034567486 0.001587787 -0.0004740911
-0.020764709 -0.019250369 0.023906598 -0.020076212 -0.017301288 -0.023694528 -0.024133487 0.018986648
-0.0076080523 0.0028596225 0.026621645 0.022419108 0.013801754 0.03412759 0.029583532 -0.010122806
-0.03188943 -0.012291862 -0.0052195024 0.033182167 -0.030246055 -0.010483542 0.00013475759 0.023593785
0.0049359035 -0.011671225 -0.02609038 0.010865829 0.009628314 -0.02323083 0.019261425 -0.014189721
0.032227594 0.016120052 0.031514127 -0.02671201 0.008060715 0.030019557 -0.020483073 -0.0112517355
-0.026369961 -0.030452529 0.032513972 0.0063567376 0.012771237 0.02167641 0.027523698 0.027885528
0.008318906 0.03387025 -0.017910205 -0.026438871 0.014753619 -0.00025561452 0.009025996 0.0152528295
-0.018836034 -0.0054450464 0.002313103 -0.0027565872 0.0045615733 0.009258568 0.00014856884 0.0005015433
-0.017450998 0.028133325 0.020148147 0.012037499 -0.02657199 -0.017106632 -0.003992511 -0.0032014763
-0.025675038 0.016808549 0.029958224 -0.018160373 -0.022617703 -0.024498375 -0.02874514 -0.011793635
0.03052769 -0.031661432 0.012675848 -0.032404803 -0.0065607475 0.006304656 -0.008279486 0.003991949
-0.014458384 -0.016055096 -0.026936239 -0.012648758 -0.029358929 0.020883884 -0.02833496 -0.0134717235
00000000: dcd0 d13b 50c7 86bc 0a62 b33b 4a9e d5b9
00000010: 4a8a fc39 5ed3 f9bc 5e14 d13c 256d 85b9
00000020: d5d9 e2bc 6a97 62bc f73e 123d 008e a1bb
00000030: 73c6 cf3c 0a41 aa3b a1dc b1bc ee23 9e3b
00000040: a592 1ebb 77e4 003c ad82 04bd 7ca3 33bc
00000050: 01d1 62bc 0a1d ba3c 6c92 84bc 518f cfbc
00000060: 6a93 593c 6e44 dc3b e537 f73c e89f ffbc
00000070: b583 e23c a396 0dbd 4a1d d03a 6e8f f8b9
00000080: c01a aabc f3b2 9dbc c5d7 c33c de76 a4bc
00000090: 6ebb 8dbc 071b c2bc 97b3 c5bc e389 9b3c
000000a0: f84c f9bb 8168 3b3b a315 da3c 47a8 b73c
000000b0: c120 623c 5fc9 0b3d 2a59 f23c 20da 25bc
000000c0: 7e9e 02bd ce63 49bc 5c08 abbb 06ea 073d
000000d0: 93c6 f7bc 2ac3 2bbc b74d 0d39 c147 c13c
000000e0: 5cbd a13b aa38 3fbc 7ebb d5bc 9706 323c
000000f0: 13c0 1d3c 954e bebc 23ca 9d3c 017c 68bc
00000100: 1501 043d 330e 843c f514 013d 25d3 dabc
00000110: 1711 043c 93eb f53c 1ecc a7bc 3359 38bc
00000120: d105 d8bc 9577 f9bc 5f2d 053d 2e4c d03b
00000130: 733e 513c ba92 b13c 6179 e13c 3170 e43c
00000140: 054c 083c 88bb 0a3d 6cb8 92bc 5596 d8bc
00000150: 2ab9 713c 0004 86b9 c5e1 133c 01e7 793c
00000160: 074e 9abc 5c6c b2bb 6e97 173b dca7 34bb
00000170: 4079 953b 40b1 173c 25c9 1b39 007a 033a
00000180: 65f5 8ebc dc77 e63c ba0d a53c ee38 453c
00000190: 81ad d9bc 3523 8cbc 9cd3 82bb dccf 51bb
000001a0: 7554 d2bc 15b2 893c f36a f53c 10c5 94bc
000001b0: c348 b9bc d1b0 c8bc ee7a ebbc 173a 41bc
000001c0: 3515 fa3c 6baf 01bd 5cae 4f3c e6ba 04bd
000001d0: 8afb d6bb 4a97 ce3b aea6 07bc e5ce 823b
000001e0: dce2 6cbc fa85 83bc 63a9 dcbc bc3c 4fbc
000001f0: 2382 f0bc ae14 ab3c b81e e8bc 81b8 5cbc

encoder.2.weight f4 [64, 128]
0.018458918 -0.0741971 -0.00063864066 -0.04319974 -0.0059016333 0.07483317 0.032204565 0.06550388
0.043251812 0.061589148 -0.04705602 -0.062868536 0.020288175 0.08592611 0.053365897 -0.033816766
0.023385052 -0.06720436 0.04834609 0.0134890145 0.040377975 -0.06522495 -0.047544025 -0.07046269
-0.0397208 -0.06660734 -0.05172848 -0.038071122 0.02621299 0.0024120852 0.079608716 -0.06319114
0.05034931 -0.06744286 -0.062704384 -0.058631543 0.067299105 -0.010459151 0.08370815 -0.008288251
0.07452591 -0.0035390707 0.039866347 -0.049308874 0.049969103 0.010869346 0.050064977 -0.06457742
-0.02929502 0.0731795 -0.055806335 0.08611431 -0.055865645 0.042283583 0.06913769 0.036875963
-0.087957166 -0.08068545 -0.02374487 -0.038672324 0.08244798 0.049089856 0.043078925 0.08336093
-0.04943313 0.068566665 -0.05528595 0.049926672 -0.0011686899 -0.041412883 0.050025053 0.03766138
-0.04161115 0.0598818 -0.06554858 0.049633276 -0.04899256 -0.028935855 -0.078463346 -0.0552004
0.019068455 0.078802116 -0.039470922 -0.052198693 0.06669984 -0.022234634 -0.017928574 -0.016852638
0.07496476 0.08812308 -0.073351 -0.06758062 -0.042998172 -0.0615472 -0.0736919 -0.03935898
0.027531417 0.078904554 -0.062281515 0.059923735 0.07520992 0.021252442 -0.048594598 0.024795612
-0.07633873 -0.07290358 0.054383848 0.08034726 0.04409636 0.0767612 -0.0024243183 -0.064348415
-0.049102657 0.056529216 -0.045887467 0.082315326 -0.023329766 0.046497602 0.031264607 0.08346259
-0.029998766 -0.04078578 -0.030377993 -0.07171796 -0.013007561 0.025312923 0.07769904 -0.010816261
-0.022087645 0.07040236 -0.08654468 0.033872567 -0.012275364 0.041497376 0.056823656 -0.05534038
-0.07435382 -0.07922303 0.048710555 -0.0008915112 -0.029894706 0.053672113 0.039649427 0.052520305
0.00015304574 0.049160294 0.08770797 -0.024524787 0.010716879 0.028204333 -0.07014044 0.080012895
0.03941662 0.062926196 0.04255763 0.08477156 0.06278136 -0.072507866 -0.008815835 0.088325925
-0.06655682 -0.04780346 -0.066960424 0.08701773 -0.062312324 -0.0009604318 -0.015826277 -0.0025117414
0.047698263 -0.040709186 -0.05824318 -0.072785266 0.0064639673 0.021541897 -0.056141656 -0.014501487
0.088124484 0.0021400694 0.01553084 0.07835022 -0.047260292 -0.06912028 -0.05345937 0.06506206
-0.026864232 -0.008142591 -0.035385545 -0.018078826 -0.02635947 0.009914214 0.054031838 0.0029280996
0.047561128 0.058461975 -0.027143676 -0.07502212 0.002575657 -0.081327066 0.0018686858 0.014148591
0.009527126 -0.054279156 0.011570321 0.04026399 -0.08574538 -0.05368573 0.0826244 0.024204282
0.0027913752 0.037106715 -0.079012 0.0476067 0.054655083 0.07458164 -0.039827 -0.03737358
0.05750005 0.04816014 0.060699712 -0.04128347 0.042073533 0.070206724 -0.04159801 0.08040067
-0.0644592 -0.054518677 3.729996e-06 0.08600925 -0.07706203 -0.01673175 -0.026649041 0.050701424
0.0530609 0.04214809 -0.083648734 -0.011930687 0.087814614 0.08437302 -0.06743171 0.048045877
0.003104284 -0.00913339 0.058236837 -0.0018077099 -0.045687824 0.066670254 -0.023909107 -0.062903464
-0.023176352 0.01069589 0.014624704 -0.020977434 -0.07064171 -0.05940222 0.08660554 0.05261542
00000000: 2837 973c a6f4 97bd 736a 27ba 36f2 30bd
00000010: 7d62 c1bb 2242 993d efe8 033d e626 863d
00000020: d028 313d e744 7c3d d0bd 40bd 38c1 80bd
00000030: 6333 a63c 07fa af3d 3396 5a3d 7383 0abd
00000040: 0292 bf3c 71a2 89bd 8d06 463d 0701 5d3c
00000050: 6063 253d a994 85bd 86bd 42bd be4e 90bd
00000060: 47b2 22bd 6e69 88bd 3ee1 53bd 77f0 1bbd
00000070: a0bc d63c 1314 1e3b e509 a33d 5b6a 81bd
00000080: 143b 4e3d 7b1f 8abd 286b 80bd a127 70bd
00000090: 1dd4 893d dc5c 2bbc 2e6f ab3d 72cb 07bc
000000a0: 0aa1 983d c1ef 67bb e54a 233d 1af8 49bd
000000b0: 67ac 4c3d 5715 323c ef10 4d3d 2b41 84bd
000000c0: 1cfc efbc 22df 953d 2f95 64bd b35c b03d
000000d0: 60d3 64bd 8d31 2d3d 1098 8d3d 400b 173d
000000e0: e322 b4bd 6a3e a5bd 9a84 c2bc df66 1ebd
000000f0: 7dda a83d 7212 493d 8773 303d 23b9 aa3d
00000100: 657a 4abd ae6c 8c3d 8573 62bd e97f 4c3d
00000110: ba2e 99ba 8ea0 29bd 12e7 4c3d d242 1a3d
00000120: 7470 2abd 9e46 753d 553e 86bd 434c 4b3d
00000130: 6cac 48bd e30a edbc 64b1 a0bd d119 62bd
00000140: 7335 9c3c 0163 a13d 43ac 21bd 4cce 55bd
00000150: ed99 883d 6825 b6bc f2de 92bc 8b0e 8abc
00000160: 2087 993d e079 b43d 0d39 96bd b567 8abd
00000170: da1e 30bd eb18 7cbd c7eb 96bd e236 21bd
00000180: 9189 e13c b698 a13d e71a 7fbd 9772 753d
00000190: a907 9a3d 9a19 ae3c 210b 47bd 2b20 cb3c
000001a0: 7b57 9cbd 794e 95bd 99c1 5e3d 1b8d a43d
000001b0: 639e 343d fa34 9d3d 50e1 1ebb 1ac9 83bd
000001c0: de1f 49bd 2e8b 673d 7ff4 3bbd f094 a83d
000001d0: 111e bfbc 4574 3e3d 510f 003d 6fee aa3d
000001e0: f9bf f5bc fd0e 27bd 45db f8bc dee0 92bd
000001f0: aa1d 55bc 0c5d cf3c ad20 9f3d b036 31bc
00000200: 26f1 b4bc 1d2f 903d 563e b1bd f6bd 0a3d
00000210: 9c1e 49bc 27f9 293d ecbf 683d 98ac 62bd
00000220: d146 98bd af3f a2bd b884 473d 4eb4 69ba
00000230: bee5 f4bc 4ad7 5b3d 7067 223d 881f 573d
00000240: e77a 2039 4e5c 493d 3ca0 b33d 35e8 c8bc
00000250: d995 2f3c c60c e73c caa5 8fbd cddd a33d
00000260: 5273 213d 73df 803d e950 2e3d b69c ad3d
00000270: 8393 803d 017f 94bd 4b70 10bc 39e4 b43d
00000280: f14e 88bd 90cd 43bd 8c22 89bd 5a36 b23d
00000290: 353b 7fbd 7dc5 7bba 1ca6 81bc 079c 24bb
000002a0: 415f 433d adbe 26bd 6790 6ebd 7110 95bd
000002b0: b0cf d33b a278 b03c cbf4 65bd a597 6dbc
000002c0: 9c7a b43d 6840 0c3b 1075 7e3c 1576 a03d
000002d0: 0294 41bd ef8e 8dbd 36f8 5abd 423f 853d
000002e0: 6112 dcbc 8168 05bc 6ff0 10bd 0c1a 94bc
000002f0: d1ef d7bc 3a6f 223c 7d50 5d3d 5ce5 3f3b
00000300: 75cf 423d d375 6f3d 6a5c debc 32a5 99bd
00000310: 5bcc 283b ce8e a6bd b1ee f43a 7ecf 673c
00000320: aa17 1c3c d253 5ebd 7291 3d3c dbeb 243d
00000330: 469b afbd 91e5 5bbd fb36 a93d 0f48 c63c
00000340: 81ef 363b 36fd 173d 0bd1 a1bd 3eff 423d
00000350: 02de 5f3d 42be 983d a321 23bd 0a15 19bd
00000360: 2c85 6b3d 9143 453d 43a0 783d db18 29bd
00000370: 4c55 2c3d 8bc8 8f3d ad62 2abd 1ba9 a43d
00000380: 2f03 84bd fa4e 5fbd d850 7a36 9e25 b03d
00000390: b3d2 9dbd 0611 89bc 174f dabc 4cac 4f3d
000003a0: 6356 593d 7aa3 2c3d 0750 abbd ee78 43bc
000003b0: 26d8 b33d c3cb ac3d a319 8abd c1cb 443d
000003c0: 3e71 4b3b 37a4 15bc c089 6e3d aef0 ecba
000003d0: 2823 3bbd 6a8a 883d 08dd c3bc 88d3 80bd
000003e0: 55dc bdbc d03d 2f3c 749c 6f3c ded8 abbc
000003f0: 9aac 90bd be4f 73bd 3f5e b13d 4483 573d

encoder.2.bias f4 [64]
0.024087967 -0.068627626 0.055194397 -0.051215027 -0.03459113 -0.023138715 -0.028063342 0.06554465
-0.05102344 0.050248694 0.008020187 0.07612192 0.015760697 -0.07913339 0.037355352 -0.05441847
-0.081983134 -0.013375829 -0.0011772668 -0.008300706 -0.019728761 0.050114054 -0.0020988076 -0.0076857307
0.012309798 -0.051641203 0.046743184 -0.015808346 -0.017830867 -0.0242139 -0.02598725 0.040111933
0.020789502 -0.075991765 -0.07807494 -0.038890813 0.02167958 -0.08729021 -0.054436594 0.030057952
0.00057319715 -0.053560752 0.061593898 -0.029205047 0.044662952 0.034404915 0.0055552074 0.07620856
0.037149813 -0.07957049 -0.065802865 0.0027032355 -0.08401387 -0.013972249 0.025522962 0.04682048
-0.04925466 -0.05420131 -0.046318278 0.025492921 -0.019629663 0.053229224 -0.033035636 -0.003183615
00000000: 2154 c53c a48c 8cbd 8513 623d d9c6 51bd
00000010: 6eaf 0dbd 678d bdbc 18e5 e5bc 463c 863d
00000020: f4fd 50bd 93d1 4d3d 1a67 033c cfe5 9b3d
00000030: 941c 813c b010 a2bd ed01 193d e7e5 5ebd
00000040: c6e6 a7bd 4b26 5bbc 854e 9aba afff 07bc
00000050: 369e a1bc 6544 4d3d 268c 09bb 95d8 fbbb
00000060: 09af 493c ba85 53bd c875 3f3d 8180 81bc
00000070: 0a12 92bc 3b5c c6bc 37e3 d4bc 694c 243d
00000080: bf4e aa3c 92a1 9bbd c1e5 9fbd f94b 1fbd
00000090: 6099 b13c 36c5 b2bd e8f8 5ebd 183c f63c
000000a0: 9c42 163a 8562 5bbd e249 7c3d 6c3f efbc
000000b0: 80f0 363d 2bec 0c3d 7508 b63b 3c13 9c3d
000000c0: 672a 183d daf5 a2bd a7c3 86bd c428 313b
000000d0: 770f acbd dceb 64bc 8815 d13c d5c6 3f3d
000000e0: 41bf 49bd 3102 5ebd 3cb8 3dbd 88d6 d03c
000000f0: 63ce a0bc e306 5a3d 6050 07bd 32a4 50bb

encoder.4.weight f4 [12, 64]
0.111791134 0.12407188 -0.10053241 -0.080041125 0.0864913 0.0068102777 -0.115487486 -0.07441248
-0.09304094 -0.08856881 -0.07886383 0.0077427924 0.11438221 0.036674067 -0.0268507 0.012404114
0.087724075 0.07613255 0.11098613 -0.07377601 0.060669348 0.04137899 -0.08747983 -0.009335384
0.08291729 0.1129546 -0.05599007 -0.05644411 0.01106514 0.06394823 0.035020962 -0.0820369
0.01792571 0.007845387 0.093388006 0.025135279 -0.0073899627 0.0025749803 -0.107876286 -0.008671224
-0.07022981 0.066955596 -0.045310676 0.04035531 -0.1000825 -0.06614596 0.052813634 0.05916968
-0.080614716 -0.05815503 -0.015461773 -0.104381725 -0.02718991 -0.11389771 -0.09281984 -0.11142331
-0.023399219 0.06616603 -0.019496575 0.11141698 0.105075076 -0.041044384 0.10992192 0.09200278
-0.009301737 -0.07125409 0.120388165 0.11325602 0.051010787 0.048283145 -0.08437455 -0.10191856
0.10471493 -0.068342194 0.09884435 -0.10717185 0.00094899535 -0.014421612 0.054353163 -0.10800223
-0.10523701 0.07634534 0.046320587 0.061715633 0.059407815 0.024444342 -0.005015373 -0.061134443
0.112329975 -0.12107268 0.021061704 -0.12156986 -0.09035519 -0.097640544 -0.049112856 0.029151767
0.0904751 0.10628547 -0.062179998 -0.017265558 -0.076938406 -0.05059606 -0.055103034 0.020678625
-0.09378597 -0.017400175 0.10200365 -0.11633636 0.008380175 -0.020891353 0.038526908 -0.02569741
-0.033608243 -0.04576756 0.03677945 -0.028477982 -0.0901991 0.11683403 0.052312955 -0.06623398
0.04414858 0.083960935 -0.0048761964 -0.11104791 0.12399386 0.035305858 0.0022256225 -0.044427395
0.049687922 0.0037470013 0.054075375 0.054412827 -0.031796083 -0.001355201 0.0140654 -0.062059775
-0.08415903 -0.09231594 0.11576903 -0.027003959 -0.06873447 -0.09781639 -0.093396574 0.07319221
-0.013825983 -0.008246109 0.10596515 -0.100961104 0.0138216615 0.08522354 0.054567054 -0.04749599
-0.038802505 0.029664457 0.11528008 0.08666322 0.010065258 0.027137741 -0.03278029 -0.10462543
0.02075553 -0.10891275 0.024332047 0.009055242 -0.09479706 0.009872705 -0.095837 0.008637637
-0.0057996064 0.058309376 -0.012699455 0.09941396 0.09027459 -0.024213016 0.124929324 0.015667632
-0.010911584 0.03840205 0.04879819 -0.099829644 -0.070120856 -0.094247684 -0.031004846 0.01964882
-0.014246464 -0.040336356 -0.025066972 0.07749066 -0.03827791 0.1116799 -0.022601321 -0.02986157
0.08790234 0.11899449 0.051938564 0.08528705 0.081658304 -0.1157158 0.09055136 -0.051328808
0.015184522 -0.12118423 -0.104316026 -0.072041065 -0.01055263 0.0051662773 0.08049524 -0.11759423
0.059295967 -0.08187631 0.06297423 0.0661881 0.07456061 0.0023422092 -0.07343066 -0.09144017
0.11212966 0.08290921 0.0143763125 0.12461874 -0.11167231 0.09298332 0.033506736 0.06492086
-0.022231027 0.035405412 0.06695153 -0.032394662 -0.076518655 -0.10120353 0.023110807 -0.007801041
-0.0279181 0.040842503 0.0006278008 -0.11307432 -0.008865431 -0.0823407 0.10702723 -0.07390836
0.039767236 0.0061350465 -0.08542682 -0.09905285 -0.0956222 -0.11584808 -0.0029172152 0.123215035
-0.080685526 -0.049272925 0.051687032 0.09963012 0.119074166 -0.023445964 0.025928184 0.047949627
00000000: c0f2 e43d 6619 fe3d f0e3 cdbd 9aec a3bd
00000010: 5a22 b13d c028 df3b b484 ecbd 9265 98bd
00000020: 408c bebd 9063 b5bd 5c83 a1bd 40b7 fd3b
00000030: 3841 ea3d 8c37 163d 00f6 dbbc a03a 4b3c
00000040: aea8 b33d 62eb 9b3d b24c e33d e017 97bd
00000050: 6c80 783d 047d 293d a028 b3bd 70f3 18bc
00000060: 8ad0 a93d be54 e73d d855 65bd f031 67bd
00000070: 904a 353c 4af7 823d 2472 0f3d f602 a8bd
00000080: f0d8 923c f089 003c 3642 bf3d 80e8 cd3c
00000090: 8027 f2bb 00c1 283b 3eee dcbd c011 0ebc
000000a0: a6d4 8fbd 0420 893d b097 39bd 9c4b 253d
000000b0: 0ef8 ccbd 8877 87bd 1c53 583d e85b 723d
000000c0: 5419 a5bd f833 6ebd 6053 7dbc 16c6 d5bd
000000d0: 60bd debc 3443 e9bd 5418 bebd e831 e4bd
000000e0: b8af bfbc 0e82 873d 48b7 9fbc 962e e43d
000000f0: 9a31 d73d 281e 28bd be1e e13d f46b bc3d
00000100: 5066 18bc aaed 91bd 128e f63d c6f2 e73d
00000110: b0f0 503d 8cc4 453d 90cc acbd aeba d0bd
00000120: c874 d63d fef6 8bbd e86e ca3d ea7c dbbd
00000130: 00c6 783a a048 6cbc 6ca1 5e3d 4630 ddbd
00000140: 8086 d7bd f25a 9c3d a8ba 3d3d 88c9 7c3d
00000150: 9c55 733d 803f c83c 0058 a4bb 1c68 7abd
00000160: 420d e63d f4f4 f7bd 9889 ac3c 9ef9 f8bd
00000170: 240c b9bd c4f7 c7bd 902a 49bd b0cf ee3c
00000180: 024b b93d 32ac d93d 74b0 7ebd 8070 8dbc
00000190: e291 9dbd d03d 4fbd b8b3 61bd 3866 a93c
000001a0: dc12 c0bd d08a 8ebc 4ae7 d03d c241 eebd
000001b0: 004d 093c 5824 abbc 64ce 1d3d 6083 d2bc
000001c0: cca8 09bd c476 3bbd 0ca6 163d a84a e9bc
000001d0: 4eba b8bd ae46 ef3d 1c46 563d aea5 87bd
000001e0: 24d5 343d b6f3 ab3d 80c8 9fbb 166d e3bd
000001f0: 7ef0 fd3d e09c 103d c0db 113b 80f9 35bd
00000200: 9085 4b3d 4090 753b 247e 5d3d fcdf 5e3d
00000210: 9c3c 02bd 00a1 b1ba 9072 663c 6432 7ebd
00000220: 925b acbd 2410 bdbd 5018 ed3d 6837 ddbc
00000230: a8c4 8cbd f653 c8bd b446 bfbd cce5 953d
00000240: 6086 62bc b01a 07bc 4204 d93d b2c4 cebd
00000250: 4074 623c ae89 ae3d b481 5f3d 288b 42bd
00000260: 60ef 1ebd e002 f33c f617 ec3d 7c7c b13d
00000270: c0e8 243c f84f de3c a044 06bd dc45 d6bd
00000280: 8007 aa3c a60d dfbd 0054 c73c 705c 143c
00000290: f624 c2bd 20c1 213c 3046 c4bd e084 0d3c
000002a0: a00a bebb d0d5 6e3d 6011 50bc 8c99 cb3d
000002b0: e2e1 b83d 605a c6bc f2da ff3d 6859 803c
000002c0: 80c6 32bc 784b 1d3d 9ce0 473d 7c73 ccbd
000002d0: 869b 8fbd ee04 c1bd e0fd fdbc 90f6 a03c
000002e0: 006a 69bc bc37 25bd 4059 cdbc 6cb3 9e3d
000002f0: 4cc9 1cbd 6eb8 e43d 6826 b9bc 40a0 f4bc
00000300: 2406 b43d 62b3 f33d 88bd 543d faaa ae3d
00000310: 783c a73d 68fc ecbd fe72 b93d 283e 52bd
00000320: 80c8 783c 702f f8bd a4a3 d5bd 448a 93bd
00000330: f0e4 2cbc e049 a93b b0da a43d 3ed5 f0bd
00000340: 54e0 723d c4ae a7bd a2f8 803d a08d 873d
00000350: 3cb3 983d c07f 193b d062 96bd fc44 bbbd
00000360: 3ca4 e53d 4ecc a93d a08a 6b3c 1c38 ff3d
00000370: 74b4 e4bd 0a6e be3d 5c3e 093d 3af5 843d
00000380: d81d b6bc 4405 113d e21d 893d 44b0 04bd
00000390: d0b5 9cbd cc43 cfbd e052 bd3c e09f ffbb
000003a0: 80b4 e4bc 784a 273d 0093 243a 8293 e7bd
000003b0: 5040 11bc 3ea2 a8bd 1831 db3d 445d 97bd
000003c0: f8e2 223d 8008 c93b 42f4 aebd 38dc cabd
000003d0: 92d5 c3bd c241 edbd c02e 3fbb 2a58 fc3d
000003e0: 743e a5bd 68d2 49bd c8b5 533d e00a cc3d
000003f0: 28dd f33d c011 c0bc 5867 d43c d466 443d

encoder.4.bias f4 [12]
-0.026075989 0.083576694 -0.086717546 0.05668372 -0.004408762 -0.0011713207 0.07730454 -0.03685625
0.018736005 0.10295488 -0.050787494 0.019539699
00000000: 509d d5bc 422a ab3d f898 b1bd 302d 683d
00000010: 6077 90bb 0087 99ba d851 9e3d 94f6 16bd
00000020: 407c 993c 02da d23d 8c06 50bd b811 a03c

encoder.6.weight f4 [3, 12]
-0.17414245 0.038372047 -0.07970858 0.03987685 -0.2641473 -0.081022255 -0.21998772 -0.16023168
0.14510225 0.2508157 0.13021089 -0.039260894 -0.1941647 0.043006346 0.22043057 -0.114456005
-0.19733635 -0.08449357 0.22480753 -0.1838305 0.046022657 0.16833647 0.0818569 -0.21630056
0.031751446 0.1887187 -0.27326733 -0.041875094 -0.20485605 0.190806 0.021585196 0.15289326
0.2790022 0.008018895 0.28583184 0.27387166
00000000: 6652 32be 022c 1d3d 413e a3bd e855 233d
00000010: 513e 87be ffee a5bd 7644 61be c613 24be
00000020: af95 143e ea6a 803e 0156 053e 08d0 20bd
00000030: 1cd3 46be 6c27 303d 8db8 613e e967 eabd
00000040: 8a12 4abe f70a adbd f233 663e 103e 3cbe
00000050: 4182 3c3d 6560 2c3e 97a4 a73d e57d 5dbe
00000060: ce0d 023d 7a3f 413e b2e9 8bbe 3885 2bbd
00000070: c9c5 51be a662 433e 70d3 b03c 0d90 1c3e
00000080: 60d9 8e3e af61 033c 8d58 923e e838 8c3e

encoder.6.bias f4 [3]
0.076776445 -0.06457547 0.20708461
00000000: f83c 9d3d 2540 84bd fd0d 543e

decoder.0.weight f4 [12, 3]
-0.13305871 0.037731316 -0.32846433 -0.010464575 -0.22507939 -0.34562212 0.17947794 0.45843795
-0.25606513 -0.104443684 0.33456722 -0.571632 0.046155352 0.052517377 0.13371634 0.40645245
-0.49854338 0.007849894 -0.3636308 -0.33399406 -0.38464665 -0.44201446 0.15936795 -0.21868406
0.26838145 -0.54462826 -0.54551196 0.12614863 -0.3999341 -0.20363997 -0.31522465 -0.25849286
0.5247169 -0.21084888 -0.56044775 -0.15257591
00000000: 8b40 08be 278c 1a3d 7a2c a8be 9c73 2bbc
00000010: 367b 66be 62f5 b0be 11c9 373e 61b8 ea3e
00000020: f81a 83be 92e6 d5bd 654c ab3e 7a56 12bf
00000030: 650d 3d3d 761c 573d f0ec 083e 891a d03e
00000040: 1441 ffbe d89c 003c d12d babe 4501 abbe
00000050: 68f0 c4be b84f e2be 5a31 233e b7ee 5fbe
00000060: 4b69 893e c26c 0bbf aca6 0bbf 1b2d 013e
00000070: 2ac4 ccbe ff86 50be 2065 a1be 2d59 84be
00000080: d953 063f c5e8 57be 8179 0fbf dc3c 1cbe

decoder.0.bias f4 [12]
0.06697872 -0.08964503 -0.060592193 0.14199977 -0.5240446 -0.029310033 -0.05024531 0.022016387
-0.5563524 -0.38161778 -0.09726855 -0.4470385
00000000: 242c 893d d097 b7bd 852f 78bd 6368 113e
00000010: c927 06bf 981b f0bc 07ce 4dbd b65b b43c
00000020: 1c6d 0ebf 6863 c3be bc34 c7bd 3be2 e4be

decoder.2.weight f4 [64, 12]
0.17966773 -0.07450431 -0.030528279 -0.049371913 -0.2403422 0.033578075 -0.0598198 0.17552292
-0.101735435 0.077996306 -0.15206705 0.21549688 -0.19723228 0.08905306 -0.040846568 -0.21126343
-0.019786578 0.02625215 -0.24793434 -0.041163612 0.09692776 0.27976543 -0.0003676315 0.036284603
-0.014855265 -0.053345107 0.2869511 -0.165098 0.2484797 0.01991504 -0.06788945 -0.1962266
-0.13705689 0.10877222 -0.16504581 0.06455781 -0.11031777 -0.13073403 -0.2647107 0.1325025
0.14902097 0.15582076 -0.12388964 -0.07629191 0.13746937 -0.14091088 -0.02006329 -0.091676824
-0.011103861 0.25071818 -0.27638304 0.058847982 -0.27345592 -0.11833322 0.05748269 0.051614385
-0.24031691 0.16140808 -0.17025463 -0.13498697 0.08708544 0.08694238 0.048660774 -0.2637956
0.029046362 0.046140935 0.085417725 -0.2733529 -0.05065444 0.088667706 -0.15080369 -0.18379688
0.2842022 0.19387907 0.21464376 -0.038075652 -0.1545489 -0.16637538 0.09596496 -0.25864753
-0.010685918 0.2700376 -0.029178886 0.20358591 0.2457311 0.21511862 0.08997862 -0.22604147
-0.15658008 -0.119884275 -0.15818126 -0.2349221 0.19208513 0.20350173 -0.0116808945 -0.025064394
0.019387562 0.21445207 0.113921985 -0.068573646 0.15144518 0.26821798 -0.12515926 -0.24809465
-0.005751886 -0.092733055 0.21115027 -0.23389336 0.15973221 -0.02336998 0.00076767977 0.05661143
0.06316895 -0.13797943 -0.21276912 -0.106796205 -0.21250115 -0.035630867 0.058586273 -0.25577006
0.10209095 0.2680914 -0.054371435 -0.08303409 -0.2667538 -0.11375567 -0.07334236 0.103626
-0.19458883 0.019943811 -0.09785243 -0.07232609 -0.022332331 0.13173182 -0.22910407 0.2605058
0.12789859 -0.27925795 -0.04782554 -0.123876154 -0.036683965 0.05716389 -0.12480691 0.1473237
-0.14110759 -0.10199573 -0.2826153 0.07650483 0.2697066 0.052243453 0.03730718 -0.027799245
-0.21195742 -0.09247947 -0.115406 -0.09738019 -0.16063514 0.2599296 -0.26970857 0.20355088
-0.11616119 0.17847075 -0.21612151 -0.024476383 -0.28846586 -0.17419477 -0.09465549 0.027136454
0.036022585 0.13396683 -0.13381535 0.2719611 0.12872897 -0.28501254 -0.13149373 -0.015073475
0.1865317 0.13153763 -0.2693557 0.095729135 -0.18211582 0.22736688 -0.20343907 0.06445606
-0.24202472 -0.037872754 0.18259959 0.1763926 0.15201615 0.090939224 -0.23229925 0.08758745
0.15877916 0.049820106 0.2670972 -0.22985382 0.103411816 -0.12933949 0.055422295 0.15792592
-0.21999384 -0.17244178 -0.1609542 0.2611517 0.28084788 0.15674412 0.2631588 0.25977993
0.12976892 0.018238796 0.2340252 0.18379991 -0.2269652 -0.119695105 0.030627836 0.06423671
-0.23998173 -0.24173681 -0.011045531 0.25092527 -0.21073543 0.20044395 -0.037940994 0.015872369
0.14950877 0.2724448 -0.1348649 -0.0780844 0.09797711 0.24090792 -0.12654242 0.080088876
0.19024147 0.11353271 0.025998047 0.032040652 0.21350878 0.16608095 0.23401576 0.15376085
-0.15488966 -0.24954312 -0.14434561 -0.25658435 -0.23999697 0.20804742 -0.16387716 -0.19789283
0.27944684 0.2608711 -0.0423142 0.028292105 0.057858754 -0.28180566 -0.10864981 0.14219159
00000000: d1fa 373e b795 98bd 7116 fabc 343a 4abd
00000010: 441c 76be 2a89 093d 9b05 75bd 48bc 333e
00000020: ab5a d0bd 87bc 9f3d 77b7 1bbe 37ab 5c3e
00000030: 42f7 49be 7361 b63d bb4e 27bd 7155 58be
00000040: 7617 a2bc c00e d73c 80e2 7dbe 2d9b 28bd
00000050: 1082 c63d 6a3d 8f3e aabe c0b9 2a9f 143d
00000060: 7f63 73bc 6680 5abd 41eb 923e 730f 29be
00000070: 7671 7e3e de24 a33c a009 8bbd a0ef 48be
00000080: a458 0cbe f8c3 de3d c501 29be e336 843d
00000090: 48ee e1bd 24df 05be 2988 87be bcae 073e
000000a0: f498 183e 7a8f 1f3e dab9 fdbd ef3e 9cbd
000000b0: c5c4 0c3e f14a 10be c55b a4bc 0fc1 bbbd
000000c0: f8ec 35bc 225e 803e 1482 8dbe 950a 713d
000000d0: 6a02 8cbe b058 f2bd f872 6b3d 9b69 533d
000000e0: a315 76be 2948 253e 3b57 2ebe 063a 0abe
000000f0: da59 b23d d90e b23d 8550 473d 3810 87be
00000100: a3f2 ed3c 47fe 3c3d 7def ae3d e9f4 8bbe
00000110: 087b 4fbd 6a97 b53d 486c 1abe 4035 3cbe
00000120: f382 913e 3c88 463e 93cb 5b3e 37f5 1bbd
00000130: 1142 1ebe 4f5e 2abe 4789 c43d 736d 84be
00000140: fd13 2fbc 5e42 8a3e 8f08 efbc d378 503e
00000150: efa0 7b3e 0e48 5c3e b646 b83d 6a77 67be
00000160: 8756 20be e385 f5bd 45fa 21be 6b8f 70be
00000170: f7b1 443e c262 503e 3961 3fbc d853 cdbc
00000180: aad2 9e3c 5399 5b3e ee4f e93d 5770 8cbd
00000190: 7214 1b3e de53 893e c029 00be 860c 7ebe
000001a0: 517a bcbb d4ea bdbd c737 583e be81 6fbe
000001b0: d790 233e 6672 bfbc 1e3e 493a 63e1 673d
000001c0: b95e 813d 7b4a 0dbe 26e0 59be f8b7 dabd
000001d0: e799 59be acf1 11bd 29f8 6f3d 4bf4 82be
000001e0: 0f15 d13d 4743 893e 95b4 5ebd c70d aabd
000001f0: f493 88be bcf8 e8bd 8534 96bd de39 d43d
00000200: 4b42 47be 3461 a33c db66 c8bd b31f 94bd
00000210: 4bf2 b6bc b5e4 063e 429a 6abe 0461 853e
00000220: d9f7 023e e6fa 8ebe b7e4 43bd c8b2 fdbd
00000230: ed41 16bd af24 6a3d c49a ffbd 06dc 163e
00000240: 827e 10be 23e3 d0bd f4b2 90be 90ae 9c3d
00000250: fc16 8a3e 3bfd 553d 6acf 183d 3ebb e3bc
00000260: 5e0b 59be e065 bdbd fb59 ecbd 446f c7bd
00000270: 8a7d 24be 7e15 853e 3e17 8abe a46f 503e
00000280: ebe5 edbd 09c1 363e f54e 5dbe b282 c8bc
00000290: ccb1 93be 1d60 32be bdda c1bd 454d de3c
000002a0: 6b8c 133d 9a2e 093e e406 09be 7c3e 8b3e
000002b0: 87d1 033e 2aed 91be 4ba6 06be bdf6 76bc
000002c0: 2a02 3f3e cdb1 063e fee8 89be a30d c43d
000002d0: 927c 3abe ddd2 683e 5552 50be 8a01 843d
000002e0: 54d5 77be 7620 1bbd 63fb 3a3e 43a0 343e
000002f0: 1faa 1b3e 583e ba3d dbdf 6dbe 0d61 b33d
00000300: 0197 223e 2b10 4c3d f7c0 883e cd5e 6bbe
00000310: 93c9 d33d 9271 04be 7d02 633d 55b7 213e
00000320: 1146 61be 9494 30be 2ed1 24be adb5 853e
00000330: 4bcb 8f3e 8881 203e c0bc 863e e001 853e
00000340: 25e2 043e 8769 953c 4da4 6f3e 0b36 3c3e
00000350: 9169 68be b522 f5bd 3ae7 fa3c 898e 833d
00000360: c5bd 75be db89 77be 51f8 34bc 4779 803e
00000370: 07cb 57be 2e41 4d3e 0468 1bbd c506 823c
00000380: d418 193e e37d 8b3e 061a 0abe b7ea 9fbd
00000390: 39a8 c83d 91b0 763e 5694 01be a305 a43d
000003a0: a9ce 423e d683 e83d dbf9 d43c 0f3d 033d
000003b0: 0ca2 5a3e 2011 2a3e d4a1 6f3e 7c73 1d3e
000003c0: 659b 1ebe 3b88 7fbe 56cf 13be 065f 83be
000003d0: c4c1 75be 620a 553e 6acf 27be 6ba4 4abe
000003e0: a813 8f3e e690 853e a851 2dbd d8c4 e73c
000003f0: 4dfd 6c3d d548 90be cb83 debd ac9a 113e

decoder.2.bias f4 [64]
0.103543475 0.15352274 0.028320186 -0.21458915 0.18437633 0.23670608 0.2125513 -0.07515051
-0.115679756 0.28604972 -0.27570102 0.17801076 -0.11740917 0.27472016 -0.07406826 -0.12346998
-0.23061234 0.27487388 0.24938062 -0.016559385 0.17763618 -0.22256991 0.19319518 -0.055272155
0.15553729 0.13983448 0.27832922 0.016574802 0.15573174 0.066781774 0.2727708 0.03052002
0.108383566 -0.11882673 0.10978265 -0.124069 0.20851862 0.19114713 0.09291968 0.16579068
0.24093229 -0.11987811 -0.021264331 0.12604752 -0.18957748 -0.23297891 0.2403434 -0.22869855
-0.0065413145 0.052767213 -0.038118735 0.2216553 0.05825949 -0.0306203 -0.2330052 0.27294296
0.08084792 0.24685583 0.27590856 0.28722656 0.10043638 -0.08804408 0.2770013 0.027054587
00000000: 9a0e d43d 1135 1d3e bcff e73c 42bd 5bbe
00000010: 26cd 3c3e 1463 723e 0ca7 593e 83e8 99bd
00000020: 82e9 ecbd 1c75 923e af28 8dbe 7448 363e
00000030: 3874 f0bd 1fa8 8c3e 1ab1 97bd d4dd fcbd
00000040: a425 6cbe 45bc 8c3e a25d 7f3e 8ca7 87bc
00000050: 42e6 353e 5ee9 63be f5d4 453e 0e65 62bd
00000060: 2b45 1f3e c530 0f3e 2b81 8e3e e1c7 873c
00000070: 2478 1f3e e2c4 883d 9da8 8b3e 1f05 fa3c
00000080: 34f8 dd3d 6e5b f3bd bad5 e03d e317 febd
00000090: e885 553e 13bc 433e ac4c be3d 08c5 293e
000000a0: f4b6 763e a882 f5bd 8932 aebc 9a12 013e
000000b0: 9920 42be 0692 6ebe 951c 763e f42f 6abe
000000c0: 8658 d6bb 6f22 583d 6422 1cbd 9bf9 623e
000000d0: 81a1 6e3d 6cd7 fabc ea98 6ebe 2ebf 8b3e
000000e0: 9893 a53d c6c7 7c3e e343 8d3e 5c0f 933e
000000f0: 97b1 cd3d 7450 b4bd 1dd3 8d3e 95a1 dd3c

decoder.4.weight f4 [128, 64]
-0.0065314174 0.10062422 -0.028020889 0.053155288 -0.030274361 0.019560084 -0.06570183 0.06528799
0.0339185 0.032702282 -0.10395309 0.10550973 0.063888416 0.009800956 -0.014574394 -0.08631764
0.018203422 0.046799436 -0.041537046 0.10857247 -0.029417515 0.06897235 -0.06678641 0.061289743
-0.021507561 -0.08169043 -0.028874218 -0.11211504 0.01865001 -0.09051627 0.046937734 0.08230275
0.065207556 0.03333144 -0.00953947 0.08264159 -0.049694985 0.029609755 -0.02847755 -0.021033898
-0.08924143 -0.036853418 0.06082861 0.023537144 0.050257266 0.08934349 0.08610842 -0.034714386
-0.093293205 0.03175828 -0.07058562 0.015235543 -0.06629579 -0.004778385 0.048008457 0.015439898
-0.005682707 -0.032976165 -0.06457764 0.0363459 0.005593419 0.06554839 0.117199495 0.120051846
-0.08635117 -0.053500593 -0.10258195 -0.060783863 0.05808802 -0.012854576 -0.10607709 0.073115796
0.00033056736 0.12433198 -0.034269124 0.0592016 -0.08549605 0.00970827 0.010987386 0.05250658
-0.075113475 0.046206743 -0.108435184 -0.06007482 0.06211464 -0.09917562 -0.0071879327 -0.077442795
0.07127151 -0.07923664 0.005223036 0.07051264 -0.06300105 -0.08646704 0.09789173 0.038746417
-0.026869506 0.0055689365 0.09036954 -0.0011986494 -0.068169445 -0.0625025 -0.103856504 0.059572265
0.04489976 0.09484942 -0.10916644 0.025937065 -0.084120065 0.09733802 0.033276662 -0.091434255
0.095949635 0.024027184 0.0810564 -0.081227645 -0.047638386 -0.083727896 -0.09300771 0.011300489
0.037975818 0.09437965 0.004399106 0.047088444 0.05980362 0.11885162 -0.08677378 -0.034250036
-0.019358978 0.054779008 0.042635947 -0.038685665 0.093679115 0.09748064 0.113979146 0.02580133
0.027400807 0.08949542 0.01643905 -0.115152046 -0.038463533 -0.09787665 0.010120496 -0.07590647
0.06823696 0.017876282 -0.031987205 0.09600583 -0.091407 0.066682175 -0.061162725 -0.115822256
-0.09758854 -0.028254375 -0.018450126 0.00086690485 0.02587083 -0.046149373 0.026234701 -0.025006205
0.0033743978 0.050105125 0.07587068 0.06721407 0.07397497 0.11996998 -0.061235666 -0.12178996
-0.02948694 0.042303234 -0.102677345 -0.06964095 0.01656875 -0.018378064 0.097092316 -0.0525361
0.028128535 -0.009881586 0.046175107 0.01906459 -0.025600135 -0.06880134 0.11386083 0.11302954
0.07627158 -0.0054709464 -0.094080985 0.08914572 0.035135463 0.09012823 0.028476402 -0.098474234
0.003241673 0.064642996 -0.082784116 0.05642727 -0.062753156 -0.023325816 0.07237534 -0.028912514
-0.123630494 -0.00049863756 0.091490254 -0.056646675 0.10904661 0.10647662 0.09164609 -0.041620895
-0.039786667 0.08333585 0.11477508 -0.10321003 0.049106 -0.08043307 0.071103394 -0.06444545
-0.032748625 0.06776281 0.068340436 0.035572335 -0.11804557 -0.025950104 0.03523925 0.040807724
-0.012444258 0.016696915 -0.024841845 0.031458616 0.07541308 0.11123909 0.06798446 0.012127832
0.06058933 -0.0540435 -0.05656165 -0.0311203 0.049480557 -0.09504832 -0.084186286 -0.124481276
-0.09106243 0.10949989 -0.063886955 -0.016576782 0.028305635 -0.024066523 0.12369698 -0.06471592
0.000776127 -0.020673111 -0.0013749748 0.09875648 0.04243757 -0.033801436 -0.022091553 -0.087650195
00000000: 8005 d6bb 1214 ce3d 108c e5bc 5cb9 593d
00000010: f001 f8bc 783c a03c ae8e 86bd b6b5 853d
00000020: 20ee 0a3d d4f2 053d 5ce5 d4bd 7c15 d83d
00000030: eed7 823d 3094 203c 70c9 6ebc 4ec7 b0bd
00000040: 581f 953c c4b0 3f3d c022 2abd 3e5b de3d
00000050: 00fd f0bc 6041 8d3d 50c7 88bd f40a 7b3d
00000060: a030 b0bc 504d a7bd a089 ecbc 929c e5bd
00000070: e8c7 983c 9860 b9bd c841 403d 588e a83d
00000080: 8a8b 853d 8c86 083d 704b 1cbc fe3f a93d
00000090: f88c 4bbd 2890 f23c c049 e9bc 484f acbc
000000a0: 36c4 b6bd 9cf3 16bd 6c27 793d f8d0 c03c
000000b0: 90da 4d3d b8f9 b63d 9c59 b03d ac30 0ebd
000000c0: 8210 bfbd f814 023d 328f 90bd 809e 793c
000000d0: 16c6 87bd 0094 9cbb 84a4 443d a0f7 7c3c
000000e0: 0036 babb 0412 07bd 4841 84bd 70df 143d
000000f0: 0049 b73b 3c3e 863d 4a06 f03d bedd f53d
00000100: e2d8 b0bd 7023 5bbd 7c16 d2bd 80f8 78bd
00000110: b4ed 6d3d 009c 52bc f23e d9bd bcbd 953d
00000120: 0050 ad39 c4a1 fe3d c85d 0cbd 607d 723d
00000130: 8e18 afbd 700f 1f3c 7004 343c 2411 573d
00000140: 18d5 99bd 4843 3d3d 4413 debd 0411 76bd
00000150: ec6b 7e3d 961c cbbd c088 ebbb 549a 9ebd
00000160: ccf6 913d d246 a2bd 0026 ab3b ee68 903d
00000170: b206 81bd a215 b1bd 767b c83d 90b4 1e3d
00000180: 701d dcbc a07b b63b aa13 b93d 001c 9dba
00000190: 6c9c 8bbd 5001 80bd b8b2 d4bd 0c02 743d
000001a0: d0e8 373d 6a40 c23d a892 dfbd f879 d43c
000001b0: 2447 acbd 2859 c73d 1c4d 083d e241 bbbd
000001c0: 3e81 c43d a8d4 c43c e600 a63d ae5a a6bd
000001d0: 7820 43bd 8879 abbd d47a bebd b025 393c
000001e0: 888c 1b3d 1e4a c13d 6026 903b d0df 403d
000001f0: a4f4 743d 7a68 f33d 74b6 b1bd c449 0cbd
00000200: b896 9ebc f45f 603d 08a3 2e3d dc74 1ebd
00000210: d6da bf3d eea3 c73d e66d e93d 505d d33c
00000220: a877 e03c 6049 b73d 30ab 863c d6d4 ebbd
00000230: f08b 1dbd 8e73 c8bd 70d0 253c da74 9bbd
00000240: d2bf 8b3d 4871 923c 0405 03bd b49e c43d
00000250: 9833 bbbd aa90 883d c485 7abd 3834 edbd
00000260: 80dc c7bd b875 e7bc b824 97bc 0041 633a
00000270: 10ef d33c 2007 3dbd 28ea d63c d0d9 ccbc
00000280: 0025 5d3b 083b 4d3d 1662 9b3d 88a7 893d
00000290: 3080 973d d2b2 f53d 40d2 7abd 046d f9bd
000002a0: 988e f1bc 2846 2d3d 8048 d2bd ea9f 8ebd
000002b0: 30bb 873c 988d 96bc 56d8 c63d 1830 57bd
000002c0: d06d e63c 60e6 21bc 1c22 3d3d 582d 9c3c
000002d0: 60b7 d1bc b8e7 8cbd de2f e93d 087c e73d
000002e0: 4634 9c3d a045 b3bb 88ad c0bd 0892 b63d
000002f0: 34ea 0f3d 2695 b83d 5847 e93c dcac c9bd
00000300: 4072 543b 8c63 843d b88a a9bd 4820 673d
00000310: ba84 80bd c815 bfbc 8639 943d f0d9 ecbc
00000320: fc31 fdbd 00b7 02ba 3e5f bb3d 5806 68bd
00000330: d453 df3d 6a10 da3d f2b0 bb3d ac7a 2abd
00000340: 58f7 22bd fcab aa3d 320f eb3d c85f d3bd
00000350: 6023 493d 18ba a4bd a89e 913d fafb 83bd
00000360: 6c23 06bd 3ac7 8a3d 12f6 8b3d 4cb4 113d
00000370: e0c1 f1bd 5095 d4bc 0857 103d 0026 273d
00000380: 00e3 4bbc f8c7 883c 2081 cbbc c0da 003d
00000390: 2c72 9a3d 52d1 e33d 703b 8b3d d0b3 463c
000003a0: 842c 783d b85c 5dbd 30ad 67bd 00f0 febc
000003b0: 20ac 4a3d b2a8 c2bd dc69 acbd 0af0 febd
000003c0: f07e babd 7a41 e03d 2ad7 82bd 08cc 87bc
000003d0: 38e1 e73c 2827 c5bc d854 fd3d c889 84bd
000003e0: 0075 4b3a a85a a9bc 8038 b4ba d640 ca3d
000003f0: 04d3 2d3d 6073 0abd 58f9 b4bc f281 b3bd

decoder.4.bias f4 [128]
0.037167028 -0.06558855 0.027231738 -0.01859194 -0.018185645 -0.051273793 0.029902905 0.09638204
-0.059182525 -0.10032569 -0.115908936 -0.016631007 0.11491017 0.048803583 -0.0642232 -0.073556066
-0.074187696 -0.045876786 -0.05408986 0.05536662 -0.08976939 -0.0110215545 0.044582233 -0.021388724
-0.09990974 0.10991973 -0.011553213 0.108000085 0.019417495 0.12469748 0.076053426 -0.064514756
-0.041006237 0.11510381 -0.054663002 -0.10667804 0.008356735 -0.03156604 -0.049751967 -0.033249095
-0.06851372 -0.062835485 0.01377289 -0.06903756 -0.11787593 0.055148676 -0.016004935 0.047137663
0.1037481 -0.12132487 0.04806742 0.11810061 -0.0932201 -0.08060099 -0.110748425 0.08930442
0.028588608 -0.049729496 0.119396016 0.106612235 -0.07262713 0.07896507 0.09962398 0.025431514
0.03682895 -0.047944933 0.010198191 0.031789705 -0.037816063 0.07691473 0.10957451 0.09716123
-0.03830713 0.09615119 0.09234597 0.08993681 0.024439603 0.09988214 -0.07122494 0.039054245
-0.11947672 -0.07859303 -0.06897603 0.08175948 -0.067349136 -0.120043784 0.05930139 0.10771692
0.11990705 -0.124327436 -0.113398865 -0.088991985 -0.085972324 -0.103220135 -0.0666258 -0.024576977
-0.03869219 -0.07362452 -0.060813516 0.07723135 -0.07830179 0.0009391755 -0.1243922 -0.09803386
-0.08351928 0.09377143 0.08603148 -0.105191484 0.0955233 -0.038201183 0.10399786 0.041406617
0.06350641 -0.010263234 0.10762091 0.050201222 0.0870551 -0.06853615 0.06869337 0.10332209
-0.11390087 -0.07609579 -0.074528664 0.056588948 0.040584117 0.103036255 -0.047361165 -0.0039195567
00000000: 743c 183d 4a53 86bd 1815 df3c 204e 98bc
00000010: 10fa 94bc 7804 52bd f0f6 f43c f263 c53d
00000020: 6069 72bd 8e77 cdbd aa61 edbd c03d 88bc
00000030: 0656 eb3d 44e6 473d 7487 83bd 90a4 96bd
00000040: b8ef 97bd 4ce9 3bbd 548d 5dbd 1cc8 623d
00000050: 04d9 b7bd c093 34bc dc9b 363d 6837 afbc
00000060: 7a9d ccbd 981d e13d b049 3dbc 262f dd3d
00000070: 7011 9f3c 6461 ff3d e6c1 9b3d 5020 84bd
00000080: 28f6 27bd 8cbb eb3d 50e6 5fbd 047a dabd
00000090: b0ea 083c 644b 01bd b8c8 4bbd 3430 08bd
000000a0: ec50 8cbd e4af 80bd b0a7 613c 9063 8dbd
000000b0: f068 f1bd 94e3 613d c81c 83bc 6c13 413d
000000c0: e279 d43d 2c79 f8bd 58e2 443d bcde f13d
000000d0: 2eea bebd 2212 a5bd 12d0 e2bd 3ce5 b63d
000000e0: a832 ea3c 28b1 4bbd e685 f43d 8457 da3d
000000f0: 88bd 94bd 70b8 a13d a807 cc3d c055 d03c
00000100: f4d9 163d e861 44bd 5016 273c ec35 023d
00000110: 04e5 1abd 7885 9d3d 9a68 e03d 78fc c63d
00000120: f0e7 1cbd eaea c43d e21f bd3d ca30 b83d
00000130: 9035 c83c 028f cc3d 62de 91bd 58f7 1f3d
00000140: 36b0 f4bd 62f5 a0bd 4e43 8dbd 8471 a73d
00000150: 58ee 89bd 84d9 f5bd 04e6 723d b09a dc3d
00000160: d491 f53d 629f febd aa3d e8bd 6e41 b6bd
00000170: 4212 b0bd 1465 d3bd 1c73 88bd a855 c9bc
00000180: b47b 1ebd 74c8 96bd 9817 79bd 782b 9e3d
00000190: b05c a0bd 0033 763a 56c1 febd fac5 c8bd
000001a0: 280c abbd 3c0b c03d 4631 b03d a26e d7bd
000001b0: b8a1 c33d d878 1cbd d4fc d43d fc99 293d
000001c0: a60f 823d 2027 28bc 5a68 dc3d cc9f 4d3d
000001d0: f249 b23d ae5c 8cbd 1caf 8c3d 889a d33d
000001e0: dc44 e9bd 1cd8 9bbd 7ca2 98bd d0c9 673d
000001f0: 883b 263d ac04 d33d c8fd 41bd a06f 80bb

decoder.6.weight f4 [784, 128]
0.0143405385 0.05139807 0.06591182 0.074791275 -0.02685847 0.047904287 0.0005497951 0.03102321
-0.077417396 0.08157501 0.0882343 -0.0060488945 -0.08133162 -0.07234494 0.057708476 0.020349784
-0.07574401 0.07045441 0.03698311 -0.006581662 -0.0147138545 0.06985614 0.031463433 0.08054343
-0.018618517 0.0065770894 -0.05021093 -0.006630574 0.0179715 0.071944185 -0.047497854 -0.017843647
-0.06264044 0.0046331715 -0.005145614 -0.07855439 -0.05940397 -0.039644957 0.02050596 0.052717425
-0.00058858073 0.017268406 -0.058437712 0.052657977 -0.026433311 -0.07493168 0.056275 -0.08726732
0.08074851 0.06729635 0.06269447 0.00042445038 0.0190921 0.07406285 -0.07225859 -0.06747745
0.0822324 -0.02671715 0.013631144 0.08810728 0.062520616 0.04156165 -0.028375197 0.010435391
0.018660486 0.087352864 -0.08122298 0.019197226 0.017470038 0.07531805 0.019656194 0.07705737
-0.06506574 0.043819815 -0.01342867 0.04078598 -0.038758222 -0.02794238 -0.0066754813 0.0026511
0.07330303 -0.020109378 0.08178356 -0.024774002 -0.050824042 0.07186816 0.01812149 0.044406552
0.00034058868 -0.0005334105 -0.046264954 0.030166449 0.052462764 -0.042189773 0.012280095 0.08186327
0.013035988 -0.07746286 0.030790938 0.040069375 0.0025782806 0.0030187573 0.031079423 0.04129523
0.018488843 0.027578222 -0.027224746 0.037256107 0.053147405 -0.029858734 -0.017680962 -0.03891823
-0.029995259 0.07243565 -0.03710464 -0.080700226 0.0200421 -0.0014253116 0.037754864 0.03861612
-0.048191138 -0.0016591634 -0.02716768 -0.048796672 0.040147856 0.023858488 -0.06253818 -0.0702722
0.054084584 -0.07824903 -0.036789764 0.0395468 -0.014116602 0.043268535 0.052307874 -0.0024189025
0.0012428052 0.062338445 -0.02522237 -0.060823813 0.07735019 0.08676856 0.04428031 -0.073462054
0.07489068 -0.050061975 -0.052575685 -0.031090686 0.001570676 -0.026710976 0.008510702 0.035328764
-0.08349475 0.032144252 -0.026086634 -0.030209891 0.0716079 -0.05953999 0.025688102 0.060170494
0.08019305 -0.039719306 0.0046437187 0.043605234 0.013537051 -0.07182295 0.04810948 0.01325982
0.03302469 0.050428733 -0.08781389 -0.06269848 0.07344828 -0.034362167 -0.06978545 -0.012716969
-0.060993854 -0.033207998 0.04926724 0.07168658 -0.015876032 0.00973785 -0.048913997 0.064197406
-0.047772747 0.052237384 -0.017668834 0.03325381 0.074199475 0.07651025 -0.088288635 0.00236369
-0.085593134 -0.066375196 -0.042594805 -0.036697198 -0.055114284 0.067931496 0.05763081 -0.043711465
-0.071537025 -0.009581738 0.05062904 0.0052275895 -0.0053778533 -0.027254144 0.0522424 0.061715905
-0.006186736 0.08197601 -0.051874172 -0.024797404 0.067691125 -0.0037842286 -0.052544296 -0.015838744
0.08431013 0.03891841 -0.0023918126 0.013795169 0.0027338553 -0.0011435704 0.05750926 -0.03481948
0.066998065 0.04305289 0.0147298705 -0.06919307 -0.036111526 0.07869013 0.03573588 0.06913488
-0.05181919 0.05660351 0.058634084 -0.05320759 -0.061858382 -0.035777133 -0.016410887 0.032757238
-0.019103091 0.07842868 -0.058964368 0.0845205 0.012912097 -0.072307184 0.025826197 0.021955073
0.04786844 -0.020664062 -0.08587504 0.07007495 0.0179295 0.01581493 -0.016388254 0.07262771
00000000: 94f4 6a3c c886 523d c7fc 863d 2b2c 993d
00000010: 4b06 dcbc 4937 443d 2020 103a 6324 fe3c
00000020: 038d 9ebd cd10 a73d 2fb4 b43d ce35 c6bb
00000030: 3191 a6bd 9529 94bd b95f 6c3d 97b4 a63c
00000040: ad1f 9bbd 674a 903d 9a7b 173d fcaa d7bb
00000050: 6112 71bc bc10 8f3d cddf 003d f4f3 a43d
00000060: dc85 98bc a084 d73b faa9 4dbd 4945 d9bb
00000070: f838 933c 7957 933d 1c8d 42bd d72c 92bc
00000080: a249 80bd dcd1 973b 8a9c a8bb 20e1 a0bd
00000090: 9451 73bd c062 22bd 1dfc a73c 3aee 573d
000000a0: fc4a 1aba 7976 8d3c 625c 6fbd e4af 573d
000000b0: ac8a d8bc c875 99bd 9d80 663d 35b9 b2bd
000000c0: 7a5f a53d abd2 893d f565 803d c488 de39
000000d0: 0967 9c3c 43ae 973d 50fc 93bd 9e31 8abd
000000e0: 7669 a83d eddd dabc 2955 5f3c 9771 b43d
000000f0: cf0a 803d 8c3c 2a3d 1a73 e8bc 34f9 2a3c
00000100: e0dd 983c 0fe6 b23d 3c58 a6bd 8043 9d3c
00000110: 531d 8f3c 5a40 9a3d 0706 a13c 41d0 9d3d
00000120: 3041 85bd 687c 333d ed03 5cbc 330f 273d
00000130: f1c0 1ebd 6be7 e4bc ffbd dabb 14be 2d3b
00000140: e61f 963d 6cbc a4bc 247e a73d d9f2 cabc
00000150: df2c 50bd 9d2f 933d 8573 943c a5e3 353d
00000160: 0a91 b239 93d4 0bba 5280 3dbd a11f f73c
00000170: 32e3 563d 2fcf 2cbd 7432 493c eea7 a73d
00000180: e694 553c d9a4 9ebd 473d fc3c c91f 243d
00000190: 5ff8 283b 58d6 453b 469a fe3c 3025 293d
000001a0: ea75 973c b9eb e13c 6e06 dfbc dc99 183d
000001b0: 18b1 593d 4e9a f4bc aad7 90bc b968 1fbd
000001c0: 9eb8 f5bc 2459 943d 09fb 17bd 2946 a5bd
000001d0: 552f a43c 85d1 baba d8a4 1a3d f02b 1e3d
000001e0: 1264 45bd 4978 d9ba c18e debc 05df 47bd
000001f0: 1472 243d e072 c33c 0414 80bd dfea 8fbd
00000200: cc87 5d3d 0741 a0bd ddb0 16bd d3fb 213d
00000210: 5249 67bc 593a 313d c840 563d 7386 1ebb
00000220: 9fe5 a23a 9956 7f3d 259f cebc 6422 79bd
00000230: c769 9e3d b7b3 b13d 455f 353d 4673 96bd
00000240: 4960 993d c90d 4dbd 9a59 57bd e5b1 febc
00000250: 24df cd3a fad0 dabc 7970 0b3c e5b4 103d
00000260: 4cff aabd b1a9 033d a3b3 d5bc bc7a f7bc
00000270: 2aa7 923d 34e0 73bd db6f d23c 5675 763d
00000280: 413c a43d b6b0 22bd 562a 983b 679b 323d
00000290: 82ca 5d3c e917 93bd 720e 453d b73f 593c
000002a0: e644 073d 5c8e 4e3d c5d7 b3bd 1068 80bd
000002b0: 0d6c 963d 58bf 0cbd adeb 8ebd d55a 50bc
000002c0: b1d4 79bd 1c05 08bd 72cc 493d 6ad0 923d
000002d0: 740e 82bc 818b 1f3c 0b5a 48bd ee79 833d
000002e0: 5bad 43bd def6 553d 3bbe 90bc 2635 083d
000002f0: e5f5 973d 68b1 9c3d acd0 b4bd 23e8 1a3b
00000300: 744b afbd b8ef 87bd e477 2ebd cd4f 16bd
00000310: 84bf 61bd ab1f 8b3d 490e 6c3d cb0a 33bd
00000320: 0182 92bd b9fc 1cbc 6560 4f3d 334c ab3b
00000330: b438 b0bb 1544 dfbc 20fc 553d d1c9 7c3d
00000340: 1aba cabb 0ae3 a73d 037a 54bd ed23 cbbc
00000350: a5a1 8a3d d200 78bb b038 57bd 41c0 81bc
00000360: caaa ac3d e968 1f3d f5bf 1cbb 2205 623c
00000370: 7b2a 333b dbe3 95ba d48e 6b3d df9e 0ebd
00000380: 4836 893d 3a58 303d 8e55 713c 19b5 8dbd
00000390: aee9 13bd 4a28 a13d c95f 123d 9796 8d3d
000003a0: 5c40 54bd 15d9 673d 4b2a 703d 34f0 59bd
000003b0: 375f 7dbd 0b8b 12bd 2070 86bc 742c 063d
000003c0: 167e 9cbc 379f a03d 9f84 71bd 1519 ad3d
000003d0: 438d 533c ca15 94bd 7691 d33c 20db b33c
000003e0: b311 443d ae47 a9bc 41df afbd 7583 8f3d
000003f0: e3e0 923c 508e 813c a940 86bc d6bd 943d
